Exercise5/remote/packages/digit_detection/src/ex5-model.pt (torch, 915295 bytes, 10 tensors)

conv1.weight f4 [32, 1, 5, 5]
00000000: a7ba 30be 1934 6bbe 932e 1bbc 2073 acbd
00000010: cca2 87be 3038 59be a451 86bc 1665 54be
00000020: dd6c 88be 4190 d7bd ce90 debd e7b6 31be
00000030: fe1e 03bc cc62 cb3d c0d0 d93d 0d9a fbbd
00000040: 5ae2 84be a5d3 753d 4164 583d 55ac e63c
00000050: 68aa f7bd 6f2e 9fbe 327d f1bc 5f26 2bbd
00000060: 5198 34be b085 90bd 3c55 76be 8d74 04be
00000070: 54b2 debd 7022 64be 0230 6fbd 9e2e d0bd
00000080: 9ea3 f53c dab7 873c 697c 08bd d1e5 f03d
00000090: 7d89 45be 006b b0bd ebbc 0a3d 85ed b3bd
000000a0: 3e45 a5bc b431 48be fbb4 aebd 7e18 ea3b
000000b0: 9ba4 16be 2780 56be 51b1 98bc 2940 55bd
000000c0: d203 29bd f6f9 22be 0214 c6bd ea8e 91bd
000000d0: 8aa0 d3bc 4fd9 56be e7fc 09be 29e8 bbbd
000000e0: 19d6 2abe 0f23 863c 6312 66be f058 20bd
000000f0: f20e 76bd 75ea 1fbe cea4 043e 9904 efbb
00000100: f776 97be 470b 6fbd 756b 22bd ed24 4ebe
00000110: 5f45 44bd 26c9 8dbe f0b1 033c d985 d3bd
00000120: f35d 46bd c182 1bbe faec 4cbe 0052 9dbe
00000130: 3d6a b9be d9a0 22bd 1fcf 0fbe edc0 66bd
00000140: 3cfe 15bb 9c76 323d 31a6 c73d f14a 933d
00000150: 9086 a9bc 9d2e 22be 3185 1a3d ae47 94bd
00000160: 3699 21bc 7eef 6dbe c3e3 ffbd b594 1abe
00000170: 0c33 b2bd 01ed 513d 5b02 a2bd c6d5 32be
00000180: 2241 24be 891d 48be 13b8 26be dc0d d1bb
00000190: fe9a 00be 8249 16be 539d 1fbd 4293 83bd
000001a0: 0ae5 40be 87b4 2cbe 3ab5 153d f641 0bbe
000001b0: 458c a4bc aee4 c6b7 e023 24bd d274 b7bd
000001c0: babc 27be 4645 2fbb 810c 25be 71df 16be
000001d0: 3e80 43be 09b3 a43d a690 4bbe 2080 5abd
000001e0: 4ddf 62bd 5913 75bd 103a 98bd e00c 19be
000001f0: 5a34 09bd ef7e 99be e5c6 a1bd 856d 6fbe
00000200: 8320 82bd 55cb f6bd d848 4e3c 2ce1 a7bc
00000210: cba3 4fbd 504e 88be a8b5 edbc d24c 31bd
00000220: 8cc1 70be c7b9 27be 9051 873d 2245 c3bd
00000230: 4c9a 1cbc 6eaf aabd 1d8b a43d e28d bfbd
00000240: 84cd 37be 969e 33bd 78d7 56bd b5fb 85bd
00000250: ef55 c2bd f867 6abe ed66 1ebe 484e 27be
00000260: 597b f5bd 429b c9bd 9789 fabd a554 4c3d
00000270: e057 81be 6a93 08bd 0f00 6fbd 08b6 473d
00000280: 1cf4 6fbe d922 c83d 2d6f 0c3d 5025 85be
00000290: 25c2 4dbe f49b 35be 6637 e73c 2666 9a3d
000002a0: 9b57 8fbd 4d6b 50bd f8d2 413d 90ba 0ebd
000002b0: 27e3 27be cce0 64bb a762 7ebd f484 32be
000002c0: 35ac ab3c 4850 1ebe 40b4 cfbd 0cb4 b7bc
000002d0: 4edb 31bd cf81 373b ca9b 43be 9a0c 5dbd
000002e0: c2f4 41be 1c2c 41be 2ecb c93d dc14 253e
000002f0: 23c7 56be dcb2 4bbe fc27 15bc b0b0 19be
00000300: f33a 67be 6b5a 823d ecd7 ccbc 9454 1dbb
00000310: 72a4 26be 6853 3fbc 8d8e e2bd c1ec 43be
00000320: 479a 29be c4c6 9ebd b12d 03be 3cca 03be
00000330: 47ea b2be 1fd9 b7bd 43e5 cdbd 4d80 ffbc
00000340: 361b 9a3c 7f49 063c 786d e6bd 2224 84be
00000350: 3d6f a53d ab0a 163d 4765 0c3d 289c a9bd
00000360: 6f21 46be 3719 3dbe 64b7 163e f470 f33c
00000370: 7fd7 a9bc b0b5 dabd 2d25 f9bd 1296 e4bd
00000380: 3ec6 bcbe d6d8 92bd 7451 423d e67a 96be
00000390: cd30 32be 2d6e 71bd e588 42bd 09bc b63c
000003a0: 6e82 c03d dca9 abbd 1dc3 f3bd 14ff 24be
000003b0: 9d18 51bd e7e8 94bd 6472 2cbe bf6a 05ba
000003c0: 7c05 25be 2ca3 29be ea12 31be b5c2 6bbd
000003d0: fa36 d2bd de79 5bbc 0935 48bd 03d2 81bd
000003e0: c3de 16bd f075 5cbe c3a0 64be 42ac acbd
000003f0: 7349 18be 1741 9ebd c39f 083d b33b 973c
-0.17258702 -0.22969092 -0.009471553 -0.08420396 -0.26491392 -0.2121284 -0.016396351 -0.20741686
-0.26645556 -0.10525561 -0.10867463 -0.17354928 -0.008002995 0.099309534 0.10635519 -0.12285242
-0.25953943 0.060016293 0.052829985 0.028158346 -0.12093049 -0.31090114 -0.029478643 -0.04178464
-0.17636229 -0.07056749 -0.24055952 -0.12935086 -0.10873857 -0.22278762 -0.058395393 -0.101651415
0.029985245 0.01656716 -0.03332177 0.11762584 -0.19290729 -0.08614159 0.033871572 -0.08785538
-0.020174619 -0.1955021 -0.08530613 0.007144033 -0.1471123 -0.20947324 -0.018639239 -0.05206314
-0.04126341 -0.15915665 -0.09671785 -0.07107337 -0.025833387 -0.20981334 -0.13475381 -0.091751404
-0.16683234 0.01637414 -0.22467951 -0.039147317 -0.060072847 -0.15616782 0.12953493 -0.0072942493
-0.2958295 -0.058360364 -0.03965326 -0.20131274 -0.04791772 -0.27692527 0.008038029 -0.10328264
-0.04842944 -0.15186597 -0.20012274 -0.30726624 -0.36213866 -0.039704178 -0.14043854 -0.056336332
-0.0022887131 0.043570146 0.09748495 0.07192028 -0.020694047 -0.15838094 0.037724677 -0.07240234
-0.0098631885 -0.2323589 -0.12494614 -0.1509579 -0.08701143 0.051251415 -0.079106055 -0.1746436
-0.16040471 -0.19542517 -0.16281156 -0.006379826 -0.12559125 -0.14676479 -0.038968395 -0.064245716
-0.18837371 -0.1686574 0.036549784 -0.13599381 -0.020086417 -2.3709927e-05 -0.040073276 -0.089578286
-0.16380587 -0.002674417 -0.16118051 -0.14733674 -0.1909189 0.08041961 -0.19879398 -0.053344846
-0.055388737 -0.059832904 -0.074329495 -0.14946318 -0.033497192 -0.29979655 -0.07899264 -0.23381622
-0.06353857 -0.12050501 0.0125906095 -0.020493113 -0.050693315 -0.26622248 -0.029017285 -0.043286152
-0.23511332 -0.16379462 0.06607354 -0.095346704 -0.009558272 -0.08334242 0.08034346 -0.09353234
-0.17949492 -0.04385241 -0.05245158 -0.0654215 -0.09489047 -0.22891223 -0.1546895 -0.16338456
-0.11986417 -0.09844066 -0.122332744 0.04988541 -0.25262356 -0.03334371 -0.058349665 0.048757583
-0.23432964 0.09772272 0.034285713 -0.2600503 -0.20093592 -0.17735273 0.028224658 0.075390145
-0.06999131 -0.05088358 0.047320336 -0.03484589 -0.16395245 -0.0034924028 -0.0621058 -0.1743353
0.020956138 -0.15460312 -0.10141802 -0.02242472 -0.043422036 0.0028000956 -0.19102398 -0.053967096
-0.18941024 -0.18864483 0.098532066 0.16121238 -0.20974402 -0.19892448 -0.009103771 -0.15008807
-0.22581081 0.06364902 -0.025005303 -0.0024006711 -0.16273668 -0.0116776 -0.11062346 -0.19133283
-0.16562758 -0.07752755 -0.12810399 -0.12870115 -0.34944364 -0.089769594 -0.10053494 -0.031189108
0.018811803 0.008196234 -0.11251348 -0.25808817 0.08077858 0.036631268 0.034276273 -0.082817376
-0.19348691 -0.1846665 0.14718395 0.029716946 -0.02073264 -0.106791854 -0.12165294 -0.11161436
-0.36869997 -0.071702644 0.04744096 -0.2939064 -0.17401429 -0.058942962 -0.047493834 0.022306459
0.093998775 -0.083820075 -0.11902449 -0.1611293 -0.051048864 -0.07270985 -0.16840512 -0.0005089454
-0.16115373 -0.16566151 -0.17292371 -0.057558734 -0.10264392 -0.013395755 -0.048878703 -0.06338885
-0.036833536 -0.21529365 -0.2232695 -0.08431293 -0.14871769 -0.07727259 0.033355486 0.018461084

conv1.bias f4 [32]
00000000: effd d03d fade 21bf efea 45be 39db 05bf
00000010: 7f2a 01bf e2ef 0cbe fbb3 93be ca39 f5be
00000020: 9fe7 a4be 5df0 edbe 2a68 8ebe 66c5 b0be
00000030: 354f 95be 67c4 0fbf 6742 12bf 3cbe f9bd
00000040: c154 ecbe 9ee1 9bbe f99f e0be 0208 1cbf
00000050: 47ad 323e 962a 4fbe 863f d0be 8fe5 a1be
00000060: 50a5 06be c968 f0be 5f9d 9bbe 37d2 a7be
00000070: 312b 89be 35f0 38bd 9e72 9dbe 2ef5 b2be
0.10204684 -0.6323086 -0.19327901 -0.5228763 -0.5045547 -0.13763383 -0.28848252 -0.47895652
-0.32207963 -0.46472445 -0.27813846 -0.34525603 -0.29161993 -0.5615906 -0.5713257 -0.121944875
-0.46158412 -0.3044557 -0.4387205 -0.6094972 0.17448913 -0.20231089 -0.40673465 -0.31620452
-0.13148999 -0.46954945 -0.30393502 -0.3277757 -0.26790765 -0.045150954 -0.30751508 -0.34952682

conv2.weight f4 [32, 32, 5, 5]
00000000: 8403 153e a45a 323e 4680 e73d 1495 653d
00000010: b404 003e c796 273e 8bae 093e a09c 953d
00000020: 6b13 0b3e 2a4c 323e a0f9 c03d e9b8 363e
00000030: 1a4a 043e 9d89 853d caed f63c d2d0 773d
00000040: e3aa 8b3d 2571 133d 38d4 d33d 2d67 ad3c
00000050: 92a3 503e 6cd1 7e3e 8f07 283e 1e5d d23d
00000060: eb2a 983c 69f8 fdbb 9d64 19be 09fc 4abd
00000070: f43b 8e3c f0d2 83bd 6997 09bd dd2c 723d
00000080: 5bde 8e3c 8ad1 56bd 64f2 e73c 5d02 a53d
00000090: 0565 08bd 8dc9 bdbd 855e 473d 4a7c 813c
000000a0: 9e80 1d3e 135e 61bc a206 a7bd f4a5 b1bd
000000b0: 8039 e5bc 2281 543d e7a9 0abd 2eea 773d
000000c0: c970 18bd 4fc9 663c 1984 353d d34a 153b
000000d0: 4259 a5bc edba c93b d75e 21bd 1c20 23bc
000000e0: b32f a2bc 9591 16bc 02ac cabc 7505 f5bb
000000f0: 106c a0bd 1e8b 37bd c87c 28bd e960 f03b
00000100: e59e 123c d185 cdbc 362b 3cbd 7d84 c4bc
00000110: d7a2 1fbc 0772 9bbb 302e 03bd ad58 a2bc
00000120: e42d a1bd 2e33 893c 9f8a bcbc 451e 87bd
00000130: 651a 18bd bcf5 bdbd b9d7 12bd 3689 e6bc
00000140: 49af eb3a 92cc d1bb 9f29 5cbd 7f63 08bd
00000150: 20f8 113e f608 c73c 2a67 403c b655 05bd
00000160: bd82 0c3e f3a6 fa3d 2616 4a3b 363a 2cbd
00000170: 7211 7f3d d730 4b3c 160b 61bd 9c25 183c
00000180: 53e6 97bd 2e2c 6c3d 8fdc 0bbe 0f38 6d3d
00000190: 4635 a7bd b417 bc3c ea61 ea3c e64b 38bc
000001a0: 64de 053e 803c 16bd 2e0f 3abd 17f3 49ba
000001b0: c9be 74bd 1f52 c43d 0473 053a 5982 95bc
000001c0: 15aa 67bd d276 163d 9684 3a3d 78df 96bd
000001d0: 6075 7cbd 3938 eabc 0ccb 9dbd 60b6 2dbb
000001e0: 31c3 11bd b001 e73c fbe7 f0bb c71b 213d
000001f0: 48b1 49bd 2638 8d3d efc2 c93b 7ae4 373d
00000200: 255b afbb ef51 91bc 163e 923d 89a9 82bd
00000210: 4082 5d3d f109 883c 2d9d 883d 2f05 bb3c
00000220: 5ace 3b3d 7e0f 0cbd b570 a7bc 935f c1bc
00000230: 79db f03d b6cc 36bc 390a a8bd 066d cabc
00000240: 3a9d adba 48a5 853d 02b9 8bbc 4af4 c2bd
00000250: 5d7c babb 1bf5 02be 1ede 9e3c 8686 993d
00000260: 53db f83c ae76 863d 6619 01bd 9167 05bc
00000270: 7a8f 4dbd 8d76 fa3b 2ddf bdbd 5dc7 efbc
00000280: 9915 0a3c 87fa 6f3d 8014 0bbd edac 3fbd
00000290: 1322 6bbd 06a9 cfbc 017e 0f3d ff45 e4bc
000002a0: d3b3 a8bd cd66 0ebc 8f3e 1ebe 3fb6 823c
000002b0: 6ee8 48bd 1597 00bd d513 8bbd d5ba 62bd
000002c0: 80c8 5a3d a0f5 e33d 39c7 eb3c ed3c 3c3d
000002d0: ebe7 88bd 60cb 5a3c a45d d53b a019 6fbd
000002e0: a088 dcbb 8489 debd 9191 8bbc 6a3d c83c
000002f0: 1ee7 a4bc e8d5 60bb bd1f ddbc 7f27 c83b
00000300: 5772 033c 342b c4bc 42f2 083c 1962 28bd
00000310: 7fa9 c6bd 2aa9 3cbc 42f5 78bd b0fc 7fbd
00000320: 6369 2d3c ea10 1bbd 1f07 a0bc 288f 23be
00000330: 79cb 933c e338 923d 2059 9bbd eca9 5bbd
00000340: ff18 b2bd 1f3e d4bd ed16 da3c 64ac ca3c
00000350: 7a89 98bc ba93 5abd 9287 e7bd 54e3 75bd
00000360: 8b09 c4bc e426 b5bc f3da 76bd 0a57 fbbd
00000370: 2891 58bc 4d95 303e 1a82 b23d 77ab a8bd
00000380: 6da0 acbd d6b1 0ebd 6fdd 84bc 0edf fd3c
00000390: 4ad1 81bd 1438 393c d4c6 3cbd 65ab 1c3a
000003a0: d6fa 283c c8b6 a2bd 521b f8bc e371 c2bc
000003b0: 0629 85bd 0790 c6bd eba7 50bd b5b0 58bd
000003c0: 770a 8abd 6b27 4cbd 2392 2fbd e1a0 1bbd
000003d0: ad0b 33bd 706b 0bbd befc b7bd 05c7 48bc
000003e0: defc 663c 46dd 06bb b3dc 17be 1fef f43c
000003f0: 0ac6 d63b 37b8 053e 4a63 c93a 0d71 babc
0.14552122 0.17417389 0.11303763 0.056050375 0.12501794 0.1636611 0.13445489 0.073052645
0.13581626 0.17411867 0.09422612 0.17843975 0.12918893 0.06520388 0.030142684 0.06050188
0.068197034 0.035996575 0.10343212 0.021167362 0.20374897 0.24884576 0.16409133 0.10271667
0.018575152 -0.00775056 -0.14979787 -0.049556766 0.017362572 -0.064367175 -0.03359166 0.059124816
0.017440012 -0.052445926 0.028313823 0.080570914 -0.033299465 -0.092669584 0.048674125 0.015806336
0.15381095 -0.013755339 -0.08155562 -0.08674231 -0.02798152 0.051880963 -0.033853438 0.060526066
-0.037216935 0.014086082 0.04431543 0.0022780194 -0.020184163 0.0061563165 -0.039397087 -0.009956386
-0.019798135 -0.009189983 -0.024740223 -0.007477457 -0.07833111 -0.044810407 -0.041134626 0.0073357713
0.008949016 -0.025088223 -0.045939647 -0.023988957 -0.009743414 -0.0047438177 -0.03202647 -0.019817675
-0.07870081 0.016748037 -0.023015318 -0.0659757 -0.037134547 -0.09275386 -0.03585026 -0.0281416
0.0017981316 -0.0064025605 -0.05375063 -0.033298012 0.14254808 0.024296265 0.011743346 -0.032552443
0.13721748 0.12238874 0.0030835955 -0.0420477 0.062272497 0.012401781 -0.054942213 0.0092863105
-0.07416978 0.05765932 -0.13658355 0.05791479 -0.08164458 0.022960521 0.028611142 -0.011248564
0.13073117 -0.03667879 -0.045424633 -0.0007703765 -0.05975226 0.09585976 0.0005090686 -0.018250631
-0.056558687 0.03673441 0.0455366 -0.07366842 -0.061635375 -0.028591262 -0.07704744 -0.002650641
-0.03558654 0.028199047 -0.007351873 0.03933313 -0.049241334 0.06895475 0.006157271 0.044895627
-0.0053514414 -0.017739264 0.07140748 -0.063799925 0.054079294 0.016606303 0.06670604 0.02282962
0.04585109 -0.034194462 -0.020439485 -0.023605144 0.11760611 -0.011157205 -0.08205075 -0.02471019
-0.001324571 0.065256655 -0.017055992 -0.09519251 -0.005691095 -0.12788813 0.019393023 0.074963614
0.03037802 0.06565605 -0.031518362 -0.008142368 -0.050185658 0.007643527 -0.09271083 -0.029269869
0.008428001 0.05858853 -0.033955097 -0.046795774 -0.057405543 -0.025349151 0.035032276 -0.027865408
-0.08237424 -0.008691502 -0.15453552 0.015956042 -0.049049787 -0.031394083 -0.06790892 -0.05535396
0.053413868 0.111308336 0.02878152 0.04595654 -0.0668486 0.013354152 0.006511407 -0.058374047
-0.006730154 -0.10866073 -0.017037185 0.024443347 -0.020129737 -0.0034307186 -0.026992673 0.006108224
0.008022866 -0.023946382 0.00835854 -0.04110918 -0.097002976 -0.011514941 -0.06078077 -0.06249684
0.010584208 -0.037857927 -0.019534646 -0.15972579 0.01804136 0.071397565 -0.075853586 -0.053628847
-0.08696174 -0.10363411 0.02662226 0.024740405 -0.018620241 -0.05336354 -0.11305155 -0.06003125
-0.023930332 -0.022113271 -0.0602674 -0.12272461 -0.013218202 0.17244454 0.08716221 -0.08235829
-0.08429036 -0.034837566 -0.016218869 0.03099015 -0.06338747 0.011304874 -0.046088055 0.00059764675
0.01031371 -0.07945019 -0.030286465 -0.023735946 -0.06501965 -0.0969544 -0.05094139 -0.052902896
-0.06740277 -0.04984228 -0.042863976 -0.037995223 -0.043712307 -0.034038007 -0.089837536 -0.012254481
0.014098374 -0.0020578667 -0.14830284 0.029899178 0.00655437 0.13058554 0.0015364673 -0.022758985

conv2.bias f4 [32]
00000000: 06c7 513d 1265 163e 2553 cdbd a465 a63c
00000010: 4e64 91bd 5781 0dbe 1af9 8e3d ad9e 8b3c
00000020: 8b83 963c 6c8e dfbd bfe2 40bd ebae 15bb
00000030: 2331 1cbe d286 04be 35ed a1bd 8b38 3c3c
00000040: 1687 66bd 285b 3abe 650b 9cbd b834 293e
00000050: ac9d 6e3b a182 43bd 215a a3bd dfeb 913c
00000060: 78ac bfbd 69f7 42b9 f478 4cbd dfd3 0bbd
00000070: 8e21 0b3e 7ba3 ab3d 3189 62bd 82a7 89bc
0.051215194 0.14686993 -0.10025624 0.020312138 -0.0709921 -0.1381887 0.06981106 0.017043436
0.018373271 -0.10915837 -0.047091242 -0.0022839855 -0.15253119 -0.12942055 -0.07906572 0.01148809
-0.05628117 -0.18198836 -0.07619361 0.16524017 0.0036409898 -0.047732 -0.07976175 0.017812667
-0.09359068 -0.00018593449 -0.049920037 -0.034137603 0.13587019 0.08380791 -0.055306617 -0.016803507

conv3.weight f4 [64, 32, 5, 5]
00000000: 983f a6bc 6dd1 653c b6d7 b0bd 1fe8 47bc
00000010: 0438 a5bc 63e3 40bd 23d1 64bd 8b26 753d
00000020: 3392 01be f0ca 213d 443a 77bd 2010 82bb
00000030: 8257 423e cb55 963d 961b d33c 4d90 00be
00000040: 33d4 85bd 196f 333d 7a3d debd 91e7 b0bc
00000050: f4ce 273d 43e0 523d 64b1 bb3d bba1 85bc
00000060: 6de0 71bd 0636 8fbd 73c5 d6bc 4398 c7bd
00000070: 7857 cbbc 331f 51bc dbba f83d 6302 253d
00000080: 0fec 903c 19fb e2bb d8ed 2ebe 7e32 943d
00000090: 3534 4cbd fcf8 1abd 5495 8b3c 749b 3fbd
000000a0: edc0 cabc 4f8b 6abd 4dac 903d 9daa e43b
000000b0: 1794 c0bd cc0c 653d f96a 293e 6de4 ec3d
000000c0: 89f6 d73b 7db6 a53c 7191 90bc d546 973b
000000d0: 9124 46bd 21b7 9e3c 14a5 32be bc3a 0f3d
000000e0: 9b7e 40bc f91d 193d 676a c3bd b13d 1f3e
000000f0: 59c9 f93d b437 083d 83e8 2f3c 44a5 d7bc
00000100: 3f39 16bd 9ca1 5dbd 44f2 303d fe41 dc3d
00000110: 0d60 833e 6f87 d3bd 1a04 003d ba5b 213e
00000120: 3df9 10bd ce1b 073e d8a6 02bd 8ef1 3c3d
00000130: d18e 78ba 1df7 8dbd 99f2 d3bd fd43 08bc
00000140: c69d 01bd 4f43 6abd da5a febc ddcb 4abd
00000150: ad07 7fbc 4353 2c3b b4f9 3fbd f5a5 413e
00000160: 58cd aa3d 9257 163e e4b4 8b3d df95 68bd
00000170: 73c7 92bc 00ec e43d 5174 4b3d cabd b43d
00000180: 3e8f 87bd 03b2 7abc b791 bcbc b381 bb3c
00000190: 1c08 973d f807 34be a969 47be a3d9 44bd
000001a0: 5b2a 12bd d39e 843d fffa 653d 399a cfbd
000001b0: 17e6 06be aaa7 303d a4dc 5b3c 90ac 293d
000001c0: 1cc8 ca3c 3e51 6d3d 1345 13bd a491 8ebd
000001d0: b983 e3bd e0f1 5dbd 1428 9b3d 7a5a b6bd
000001e0: efe2 50bd 7ac8 d4bc ffa8 b83d 1641 7bbd
000001f0: 2166 803c 6ca0 bfbc 6941 f33c 91aa c7bc
00000200: 115a b6bc fde9 a2bc 786a 2f3d b3da 4ebc
00000210: 313a 1a3b b1e4 a03c d6b1 2ebb bf33 8f3c
00000220: 2d18 043c 073f 2bbd aedc c7bb 7c94 563c
00000230: 1a13 9dbb 8934 153a e04d afbc 7127 a9bc
00000240: 9c2c 29bc 7834 afb8 0bc2 253d 2fc9 21bb
00000250: 09c7 433d ec46 263d 4d79 e1bc 5184 de3d
00000260: 9af3 13be 66c7 4abd b885 80bd 3f86 093e
00000270: b63d 453e 0b54 f9bd 2965 093e 5c4f b3bd
00000280: 40ea 20bd 2aa8 673d 7897 55bc 1218 05be
00000290: c1e1 12be be09 b83d 8733 903c 4527 f03d
000002a0: 9fef 213e 3136 0038 6c90 353e 6d64 fd3d
000002b0: fb2f 08be 85ad 4ebd 4390 fe3d 2d01 44bd
000002c0: b140 48bc 28a5 63bd ad89 13bd 662d 05be
000002d0: 83f7 bd3c a1d0 e03c e11e a3bd 1381 6dbd
000002e0: c214 95bc 694b 01bd aaed e6bc bd23 2fbd
000002f0: 4a54 3139 dacd da3c e7e1 14bc 57c9 4fbd
00000300: d706 05bd 6453 873d 33af 60bd 1529 f138
00000310: 968c d4bd 329c 71bd 0dc9 9dbc 0a1b 33be
00000320: d099 16be 3ee8 93bb 397e 91bd f781 c23b
00000330: d1b7 1cbd 20d5 adbd 7136 e2bd 49e4 493d
00000340: aadc 863c a2ce 923d 9584 fbbc 1efa 5f3c
00000350: 54ae 233d b720 123e 11e4 553e 9de6 ccbc
00000360: 74db 623d 83b5 603c 316e 203e ae5e 71bd
00000370: b2bf bb3d bac7 a6bd 9a1c ad3d a43e f8bc
00000380: d375 453e da6d 1ebe f6b2 47bd 0147 eabd
00000390: bca9 92bd 4818 c7bd 4351 06be 9bb8 51bd
000003a0: 5cc6 893d b4e0 25be 2c06 29be 2793 82be
000003b0: 72d8 a4bd 5222 0b3d dedd bfbc 508e 1bbc
000003c0: a33f bfbd 3d1d 16be 4e9f 6cbd 95df 1a3e
000003d0: 31f9 5ebc db37 1cbe 6a63 89bd d88f 05be
000003e0: abbf 02bd 65cf 97bd 14f6 16bd 90f2 18be
000003f0: d195 f7bd 3ef6 20bd 915d 2c3d d30d 89bd
-0.020293996 0.014026982 -0.086348936 -0.012201338 -0.020168312 -0.047091853 -0.05586351 0.05985121
-0.12653427 0.039500177 -0.0603583 -0.0039692074 0.18978694 0.073405825 0.02576999 -0.12555046
-0.065346144 0.043807123 -0.108515695 -0.021594794 0.04096885 0.051483404 0.09164694 -0.01631247
-0.05905192 -0.06992726 -0.026217198 -0.097458385 -0.024821982 -0.012763786 0.12145015 0.04028548
0.017690687 -0.006926906 -0.17082918 0.07236193 -0.049854476 -0.037835106 0.017038979 -0.04677911
-0.024750197 -0.05726176 0.07064114 0.0069783465 -0.09403246 0.055920407 0.16544713 0.11567006
0.0065906686 0.020228619 -0.017647477 0.004616598 -0.048374716 0.019374432 -0.17445785 0.034968123
-0.011748935 0.0373821 -0.09541779 0.15550877 0.12196607 0.033256248 0.010736587 -0.026323922
-0.036675688 -0.0541092 0.043199793 0.107547745 0.25659218 -0.10328566 0.03125391 0.15757647
-0.035393942 0.131942 -0.031897396 0.046128802 -0.00094817305 -0.06931899 -0.10349006 -0.008316991
-0.031644605 -0.057193097 -0.03104918 -0.049510825 -0.015565795 0.0026294745 -0.046868995 0.18910964
0.083399475 0.14681843 0.068216115 -0.056783553 -0.01791737 0.11177826 0.049671475 0.08825262
-0.06619118 -0.01530123 -0.023018701 0.022888994 0.073745936 -0.17581165 -0.194739 -0.048059117
-0.035684925 0.06475606 0.05614757 -0.101368375 -0.1317371 0.043128647 0.013419304 0.041424334
0.024753623 0.057938807 -0.035954546 -0.069613725 -0.111091085 -0.054185748 0.07576004 -0.08903976
-0.05099767 -0.0259745 0.090166084 -0.061341368 0.015673699 -0.023391925 0.029694276 -0.024373325
-0.022259744 -0.019886965 0.042826146 -0.012625384 0.002353322 0.019640299 -0.0026656291 0.01748073
0.008062405 -0.041808154 -0.006099305 0.013096925 -0.004793537 0.0005691727 -0.021399438 -0.02064869
-0.010325577 -8.354423e-05 0.040468257 -0.0024686565 0.047797237 0.04059498 -0.027523661 0.10865081
-0.14448395 -0.049506567 -0.06275505 0.13430117 0.19261822 -0.12174233 0.13417496 -0.08755371
-0.0392859 0.056556858 -0.013036601 -0.12997463 -0.14343931 0.08986233 0.017602695 0.1172624
0.15814064 3.0568048e-05 0.17730874 0.1237267 -0.13299553 -0.05045845 0.124298595 -0.047852684
-0.012222455 -0.055577427 -0.03601997 -0.130056 0.023189312 0.027443232 -0.07964874 -0.057984423
-0.018198375 -0.031566057 -0.028189499 -0.042758692 0.00016911436 0.026709486 -0.009087062 -0.050729122
-0.032477226 0.066077024 -0.054854583 0.00011499428 -0.10378377 -0.05898685 -0.019260908 -0.17490783
-0.14707112 -0.0045137694 -0.07104153 0.005935903 -0.03826124 -0.08487916 -0.1104554 0.049289975
0.016462643 0.07168318 -0.030702868 0.013670472 0.039961174 0.14270292 0.20887782 -0.025012309
0.055385068 0.013715151 0.15667035 -0.058928184 0.09167422 -0.081435636 0.08452721 -0.030303307
0.19283228 -0.15471593 -0.048754655 -0.11439324 -0.071612805 -0.09721428 -0.13116936 -0.051201444
0.06727287 -0.16198999 -0.1650626 -0.25502893 -0.08049096 0.033968277 -0.023421224 -0.009494379
-0.093383096 -0.14659591 -0.057769112 0.15124352 -0.013609217 -0.15255682 -0.06708415 -0.13043153
-0.03192107 -0.07412604 -0.036855772 -0.1493628 -0.12089122 -0.039297335 0.04208142 -0.0669209

conv3.bias f4 [64]
00000000: 5c42 0e3d 651f 85be d410 b6be 5ab3 fbbe
00000010: d660 efbe cf4d 3fbd 0a8d 86be 2690 d3be
00000020: bc84 dbbe 1790 eabe f74d 0cbf 7f9c 3bbe
00000030: 1d4c afbe 8418 0dbf 1a56 cbbe c30b b0be
00000040: cb6e e4bd 8ab7 1bbe 0f04 9dbe 3c27 f9bd
00000050: 5866 c0bc 2036 25bd 8dfc 533b d4a8 cabe
00000060: ac17 13bf c8a7 20bd 2866 8abb 01fb febd
00000070: c46e 69be 0674 95be 190a 4dbe c0d4 3dbe
00000080: 2382 3cbd 7822 24be a641 c8be c13c 8bbe
00000090: f5ce 9cbc 2355 82ba ae50 9fbe 1167 9cbe
000000a0: 152f 4abe 0898 94be 843e 7ebe eb9c 46bd
000000b0: b0fa 34be 9200 ae3e 3772 51be bdd9 8d3c
000000c0: a5c3 0bbf 5009 e7bd 616e e63c cd72 28bd
000000d0: 022d d5bd 2056 7dbe 5884 a8be 624f 01bf
000000e0: eee4 d9be a296 afbe 875d 3cbe 5e7f 28bd
000000f0: e53d 26be f554 80be 8142 e3be 7965 f8be
0.034731254 -0.26000515 -0.35559714 -0.49160272 -0.46753567 -0.046705063 -0.2627948 -0.41320914
-0.42874706 -0.45813057 -0.54806465 -0.18321417 -0.34237757 -0.5511553 -0.39714128 -0.34383973
-0.111539446 -0.15206733 -0.3066716 -0.121656865 -0.023486301 -0.04033482 0.0032346577 -0.3958193
-0.57457995 -0.03922251 -0.0042236038 -0.12450219 -0.2279616 -0.2919008 -0.20023383 -0.18538189
-0.046022546 -0.16028774 -0.39112586 -0.2719479 -0.019141654 -0.0009943586 -0.3111624 -0.30547383
-0.19744523 -0.2902224 -0.24828535 -0.048489492 -0.17673755 0.3398481 -0.20453726 0.01731574
-0.54595405 -0.11281073 0.028128805 -0.041125108 -0.10408975 -0.24739885 -0.3291347 -0.50511754
-0.42557472 -0.3429461 -0.18395053 -0.04113709 -0.16234548 -0.25064817 -0.44386676 -0.48514917

fc1.weight f4 [256, 576]
00000000: 3232 4bbd 7dd7 1f3c c645 d7bd fdee f4bc
00000010: 1035 ce3c 3db1 00be d2f7 f5bd 9053 95bd
00000020: cdb5 5dbd bc2c 0b3e 734b d53d d714 21be
00000030: 1c00 b5bd 1fb7 31be 8b24 efbd 99be ab3d
00000040: 7c13 86bd 7059 583e 5b2f 543e d966 a7bd
00000050: fbcc 16bc 3812 c6bc 0047 0ebe 60e9 d63b
00000060: 507e a03d 71ed 4c3d e066 1dbd 1a43 a43d
00000070: b203 1ebe a51d 4cbe 5ffb e5bb 64b7 cdbc
00000080: 3b0f 36bd 6be4 2bbd 0f3c 4dbd dac7 343d
00000090: 2c58 86bd a257 38be cf04 49bc e45d 53bc
000000a0: 5d53 f7bd e9cd d5bc 9933 f9bb 4f38 4b3c
000000b0: b3cb 03be d100 f1bd 8357 bc3d 6c2d 613d
000000c0: d9bc 94bd 983a 0bbc 503f 323e f178 673d
000000d0: 2a77 23be 5fe8 8d3c bda1 29be 5753 353d
000000e0: 2cc0 863d 78f7 3b3d f1f1 3abe 3081 7abd
000000f0: 0bca f03d 7d5b 3a3d 570c e63d 95aa 143d
00000100: 60ee 9f3d b95e 9e3d 59a5 afbd 5c54 993d
00000110: 2868 de3c 12bd 6abc a6d9 c23c 55a6 3a3e
00000120: cd5b a5bd 52c5 293d 9f53 b2bc 8c88 20bc
00000130: 71fe 51be e5e1 c73d f2f3 27bd 5e49 45bd
00000140: b6ef c0bd d141 0cbe fdaa 77bd f1ed 04bd
00000150: 3227 173e 1112 d43c e655 2d3e 2463 733d
00000160: 1716 e63d 5f97 383e caf3 01be c41e a8bd
00000170: 3b1e 8dbe cb6f 10be f844 38bd 4c24 f43c
00000180: 24c3 aebd 21b8 a63d 85fc 023e 6b78 04bc
00000190: 5e03 c33d 7f4c 61bd 1993 b43d f4ad 68bd
000001a0: 57e0 a73d 37b7 fc3a 7739 2b3d 36b5 12bd
000001b0: 6aa5 55bd 9e3d ccbd 0462 063d 50d7 c9bc
000001c0: 7adc 8dbd e4cd 43bd 0fcb c43d 88fd 3fbd
000001d0: 8193 1b3c 433e fd3c 0491 313d c717 8e3d
000001e0: ee1a d7bd 34ce abbd b4ef 32bc be0e 3f3e
000001f0: 2c0f 19be 4250 7d3c 74fa e53a a7cb c0bd
00000200: 36f7 19bd 5f95 b03a c6ff 6fbd 7691 9bbc
00000210: a07a d23b d2e7 2e3d 07c7 f93c 826f 563d
00000220: 2b6b 9f3d 1216 12be 3aef 69be 7ab8 77be
00000230: 1088 04bd 35f5 6f3e 5844 26be 4925 abbd
00000240: d499 25bd 2ef8 0f3d 855c 8b3c a3c3 18bd
00000250: 18f5 f93c a260 a63e da36 90bd c6c2 9cbe
00000260: 6ae3 353e 9648 093e a969 cbbd ef54 40bd
00000270: ebd3 4fbe b5eb 34bb 6b4a ffbd 1acb 693d
00000280: 9aa6 30be 8529 54bd ba62 8fbd 1959 0a3d
00000290: 9d19 d4bd fb36 a5bb a3ee 7d3c 8b72 033e
000002a0: ca99 99bd a083 433e c80a c53d 49fd 16bc
000002b0: 98d3 2dbe 6701 bebd 9b7e 163d 0f75 53bd
000002c0: 7267 a73a 07ab 943e 2ece 533e 68b2 4b3d
000002d0: 6181 053d 4cdc e33d 150f dabd 9ce1 cdbd
000002e0: 947b 143e c11f 94bd ec53 45be bfe8 34bd
000002f0: 3d51 5cbe fbe7 aabd c89f c13d 0bfb 653e
00000300: 6c57 04bd 6ab8 a239 d24d cfbd 7252 8a3c
00000310: 0439 cebd 2353 45bd 1d2d 22be 87a2 09be
00000320: ad12 babd e170 02be a62c 59be b8e4 393e
00000330: 89b6 083d ac1b 2bbd a981 afbd b30a af3d
00000340: d36f bdbd 95a5 a73c 4630 27be c536 36be
00000350: 106b 61bd 4063 19be 310b e53c 0110 073d
00000360: 0058 35bd 8796 53be 7719 cabd f242 673d
00000370: 6d90 97bc fc75 dfbc 7db6 ba3d 2a9c 663d
00000380: b34a 10be e2f2 1bbe 27e5 1dbd 79d9 863e
00000390: ff1b b1bd a1da 3c3d cc40 833d 5b36 1e3d
000003a0: 1098 c5bd de03 92bd f68a d7bc 9899 943d
000003b0: 9887 17bd 2968 153c 0e05 c93c dd9f 1dbd
000003c0: 57ac e1bd 6419 25bd 39df 74bc 452f 18be
000003d0: a567 5d3c 32d8 523c c000 9c3c d6dc 83bd
000003e0: 9eff 55b9 1584 1e3e 3456 d4bd 1355 efbd
000003f0: ba9f 25be 37b8 ccbd 7268 0c3e d043 82bd
-0.049608417 0.009755966 -0.10511355 -0.029899115 0.025171787 -0.12567611 -0.120101586 -0.07291329
-0.054128457 0.13591284 0.104147814 -0.15730606 -0.088379115 -0.17355011 -0.11676892 0.08385963
-0.06546685 0.21127868 0.2072119 -0.081739135 -0.009204145 -0.02417861 -0.13894272 0.006558582
0.07836592 0.05003113 -0.038428187 0.08020611 -0.15431097 -0.19933183 -0.007018491 -0.025111862
-0.04444812 -0.041965883 -0.050106104 0.044135906 -0.06559786 -0.1800218 -0.012269213 -0.012900803
-0.12076447 -0.026099162 -0.007605028 0.012403562 -0.12870674 -0.11767734 0.09196379 0.05497496
-0.07262582 -0.008497857 0.17406964 0.056511823 -0.15963426 0.017322717 -0.16565605 0.044268932
0.065796226 0.0458903 -0.18256356 -0.06115836 0.11757287 0.045497406 0.112328224 0.036295492
0.07809138 0.07732911 -0.085764594 0.074867934 0.027149275 -0.014327304 0.023785423 0.18227513
-0.0807415 0.041447945 -0.02176839 -0.00979818 -0.20507218 0.09759883 -0.04100413 -0.04816567
-0.09420721 -0.13696982 -0.0604658 -0.03245348 0.14761046 0.025887521 0.16927299 0.05942072
0.11234682 0.18026493 -0.12690654 -0.08208993 -0.27562127 -0.14105146 -0.04498765 0.029802464
-0.08533314 0.081405886 0.12791641 -0.0080853505 0.095221266 -0.055004593 0.08817119 -0.05680652
0.08197086 0.0019280676 0.04180285 -0.035817347 -0.052159704 -0.0997269 0.03280832 -0.024638802
-0.06926818 -0.047803774 0.09609043 -0.046872646 0.009495617 0.030913478 0.04335119 0.06938129
-0.10503183 -0.083889395 -0.0109214075 0.18657967 -0.14947194 0.0154610295 0.0017545954 -0.094138436
-0.037589274 0.001347225 -0.058593534 -0.01899026 0.0064233094 0.04270155 0.030490411 0.052352436
0.077841125 -0.14266232 -0.22845164 -0.24191466 -0.03235632 0.23433383 -0.16237009 -0.08356721
-0.040429905 0.035148792 0.01701189 -0.03729595 0.030512378 0.324956 -0.07041712 -0.3061735
0.17762533 0.13406596 -0.099322625 -0.046956 -0.20295684 -0.0027606313 -0.12465366 0.05707846
-0.17251053 -0.05179741 -0.070012525 0.033776376 -0.10356448 -0.0050419546 0.01549879 0.12836663
-0.07500036 0.1909318 0.09621197 -0.009215661 -0.16975248 -0.09277611 0.036741834 -0.051625308
0.0012771918 0.29036734 0.2068412 0.04973069 0.03259409 0.11126003 -0.10647408 -0.10052797
0.14500266 -0.07232619 -0.19270295 -0.044167276 -0.21515365 -0.08345028 0.09454304 0.22459047
-0.032309934 0.00031036447 -0.10122265 0.016885016 -0.100694686 -0.04817499 -0.15837522 -0.13440906
-0.090855934 -0.12738372 -0.21208438 0.18153656 0.033377204 -0.041774437 -0.085696526 0.085469626
-0.092498444 0.020464698 -0.16327009 -0.1779433 -0.055033743 -0.14979267 0.027959438 0.032974247
-0.044273376 -0.2066289 -0.09868138 0.05646033 -0.018501485 -0.027277939 0.09116838 0.056301273
-0.14090995 -0.15229371 -0.038548615 0.26337793 -0.08647918 0.04610694 0.064088434 0.038626056
-0.09648144 -0.07129644 -0.026311379 0.07255858 -0.036994547 0.009119072 0.024538543 -0.038482536
-0.11019199 -0.040307418 -0.014945799 -0.14861782 0.01351348 0.012868928 0.019043326 -0.064386055
-0.00020408488 0.15480073 -0.103680044 -0.116861485 -0.16174212 -0.09996074 0.13711718 -0.063605905

fc1.bias f4 [256]
00000000: 613d 32be efdb 993e d649 8ebd e2fe 6dbd
00000010: 98a9 06be ecd2 babe 9765 a3bd e718 b7be
00000020: bf9c 423e 4bf7 28be 96fb cabd c2d9 c53e
00000030: fe3c 92be c60e 833e 5d37 61bd 9420 1c3f
00000040: 7dab b93e ebc7 14be 4af0 923e 3355 32be
00000050: 4268 b0bd 2e25 b5bd 5420 6dbd ac01 79bd
00000060: bd55 9bbd 1eb5 2abe 9424 6d3d 3f2b c13a
00000070: 2f27 1bbe 0ca4 133f b5c9 3bbe 62b4 113f
00000080: 4c18 c63c fed2 733e 5474 20be 6d28 2b3d
00000090: 7da4 65be 749b 29be cb26 20be 2230 833c
000000a0: e349 04be 7221 a3bd fa9e a53d 624d d6ba
000000b0: 5e74 36be f88f dd3e b3f4 9b3d f9b2 19be
000000c0: c75e e9bd 2e94 18be af5c 2e3d 1c61 c83e
000000d0: ed62 6a3e 779d d8bd 53b6 50bd 8a4c 78be
000000e0: f8dd 0cbe d56e eabd 3232 06bb 0a79 5e3c
000000f0: 30b8 1abe 42a5 95be ac30 a3bd 93a9 24be
00000100: ada9 8abd 7f11 213d fa28 0ebe 0acc 2b3d
00000110: 0ab8 f43c 3145 23bd 7df2 b7bd 9a07 05be
00000120: e6b8 8abd ace9 0e3e 6494 90be 2402 f7bd
00000130: ee1b c9bd 3892 e5bd 05dc f2bd 8ab5 9ebe
00000140: 5b6b c63a 545d b23e 2f3c efbd 9215 4b3b
00000150: d059 c53d 84c9 dbbd 727c b3bd 9b57 893d
00000160: 485a 88bd 9f7c 1abe 32de 17be 1454 bdbc
00000170: 7525 b7bd 6220 79be 2044 1bbe dd91 94be
00000180: 57f2 c6bd 1e2a 783e ba8b 343c 6a6a a1be
00000190: e019 b23e 8c1f 0c3f 76fe 91bd 1bf9 003e
000001a0: b689 7bbe ebdf d8bc 622e 1abe 8575 75be
000001b0: fb32 39be c0c4 20be b377 863c 897c cbbd
000001c0: 92d1 bebd 7e65 92be 9b32 d6bd 8faf 7cbd
000001d0: 1d98 2c3e 0b28 14be 9d1e 9bbd df86 30be
000001e0: 31fe d6bd fdbf 983e f677 95bd eb2d 723e
000001f0: 7596 19be 9866 fd3e 4779 b93e 4478 f5bd
00000200: 2848 22be 7226 49be 6bb5 a0bd 3b70 69be
00000210: e6ff 7cbe 4b74 d43d f0f9 efbd a00d 3ebb
00000220: fafd 29be b47b f73c 389c 913d 87ce ebbd
00000230: 4225 bb3e 1a27 a0bd 7060 a7bd 325b be3e
00000240: c6a4 f8be 1c65 c8bd bb91 c93e 6d07 9dbd
00000250: 477d afbd a0a1 3abe d9df fcbd 157e f8bd
00000260: 763d aa3b 8473 293e 76bf 3c3e 1396 0a3d
00000270: 9e6a 9b3e d132 c4bd 355e e43d d357 35be
00000280: 18e7 a73e 9574 dd3e 6359 dbbd 8146 61bd
00000290: 8224 50be ea4e e03d 300d 83be 5745 fa3e
000002a0: 7f6e 13be 186f 90be a1b2 d73c 61ba 45bd
000002b0: 0807 75be a188 02be c427 543e 0eb2 acbd
000002c0: 9ee6 c63e da5b d5be 14be b0bd 1773 85be
000002d0: 0cc4 c93e 9e91 a93e 8da8 01bd 6f24 543e
000002e0: 1531 46be 5096 5e3e 8f09 ffbd 47e2 9d3e
000002f0: 6f16 44be 3da1 70be 79d6 94bd 5624 c7bd
00000300: 799a 3e3e ef14 31bc 1970 07bd f6ed 6c3e
00000310: d4c0 53be 5780 c7bd 1ec5 123f 99fb d73d
00000320: 0da3 0f3e bdad c1bd 9d48 04be 6508 593d
00000330: 7e79 51be f828 6c3e 4aff 12be 87bc 5ebe
00000340: 3957 33be e021 5ebe 2579 833e 0a2f 35bd
00000350: d955 a7bd 3b3d 313f 0397 95bd e890 cebd
00000360: 19b4 94be dd21 a93c ed4b 1bbd 7152 5ebc
00000370: 6b04 803d 8d2d 1d3c c20c 4d3e 4f86 d33d
00000380: b798 57bd c9e4 233b eac9 0ebe 4b32 2fbd
00000390: fcee 0abe de4b 80be c399 4dbe 7f69 e73d
000003a0: fef9 01be 2c54 20be ccaf 073e ed43 033f
000003b0: 54fe 6fbd dc3a acbe 9161 34be 5b22 c8bd
000003c0: 7c70 693d c781 b43d 3518 7fbd 3659 87be
000003d0: a7a8 3dbe ad21 a4bd 29d5 90be ced2 0d3f
000003e0: e514 6dbe 3f80 82bb e420 1dbe 0aab 81bd
000003f0: 3be3 53be fd4c b43c 3c69 88bd f9cc d63e
-0.17406227 0.3005061 -0.06947677 -0.058104403 -0.13150632 -0.36489046 -0.07978361 -0.35761186
0.19005106 -0.16500585 -0.099112675 0.386427 -0.28562158 0.2559721 -0.05498444 0.6098721
0.36263648 -0.14529388 0.2869895 -0.17415313 -0.086136356 -0.08844982 -0.05789216 -0.06079261
-0.07584713 -0.16670653 0.05789621 0.001473762 -0.15151666 0.5767219 -0.18338664 0.5691587
0.024181508 0.23810956 -0.15669376 0.0417866 -0.22426029 -0.16563207 -0.15639798 0.016014162
-0.1291881 -0.079653636 0.08086963 -0.0016349966 -0.17817828 0.43273902 0.07615032 -0.15009679
-0.113950305 -0.14900276 0.04256886 0.3913659 0.228893 -0.10576909 -0.050955128 -0.24247947
-0.1375655 -0.11446921 -0.0020476696 0.013578663 -0.15109324 -0.29227644 -0.07968268 -0.16080312
-0.06770644 0.039323326 -0.13882819 0.041942634 0.029872913 -0.039860908 -0.08981798 -0.12991181
-0.06773548 0.13956326 -0.28238213 -0.12060955 -0.0981978 -0.1120953 -0.11858372 -0.30997878
0.0015138196 0.3483683 -0.11681401 0.0030988199 0.09636271 -0.107317954 -0.087639704 0.067061625
-0.06657845 -0.15086602 -0.14830855 -0.02311138 -0.08942691 -0.2432876 -0.15162706 -0.29017535
-0.097141914 0.24234816 0.0110196415 -0.315265 0.34785366 0.54735637 -0.07128613 0.12595026
-0.24564251 -0.02647396 -0.15056756 -0.23970611 -0.18085854 -0.15700054 0.016414499 -0.099358626
-0.09317316 -0.28593057 -0.10458871 -0.061690863 0.16854902 -0.144684 -0.075741984 -0.17238949
-0.10497702 0.29833975 -0.07298271 0.23650329 -0.14998801 0.49492335 0.3622534 -0.119858295
-0.15847838 -0.19643572 -0.07847103 -0.22796719 -0.24706993 0.103737436 -0.11717594 -0.002899982
-0.1660079 0.030210353 0.071098745 -0.11514001 0.36551863 -0.07819958 -0.08172691 0.37178952
-0.48563212 -0.0978491 0.39368996 -0.07667432 -0.08568817 -0.18225718 -0.12347383 -0.12133423
0.005195315 0.16547972 0.18432412 0.03383453 0.3035478 -0.09580005 0.11150781 -0.17709284
0.32793498 0.43253008 -0.107104085 -0.05499888 -0.20326427 0.10952552 -0.25596 0.48881027
-0.1439762 -0.28209758 0.026330294 -0.048273448 -0.23928463 -0.12747432 0.20718294 -0.08432399
0.38847822 -0.4167164 -0.086300045 -0.2606437 0.39407384 0.3311891 -0.031654883 0.20717023
-0.19354661 0.21737027 -0.12452995 0.30836698 -0.19149183 -0.23499008 -0.0726747 -0.097237274
0.18613614 -0.010808214 -0.03306589 0.2313765 -0.20679027 -0.09741276 0.57332027 0.10546035
0.14027043 -0.09456966 -0.12918325 0.05298652 -0.20456502 0.23062503 -0.14355198 -0.21751605
-0.17513742 -0.2169261 0.25678363 -0.044234313 -0.08170671 0.69234055 -0.07304194 -0.100862324
-0.29043654 0.02064603 -0.037914205 -0.01356946 0.06250843 0.00959338 0.20024398 0.10328352
-0.052635875 0.0025008193 -0.13944212 -0.042772572 -0.13567728 -0.25057882 -0.20078187 0.11299419
-0.1269302 -0.15657109 0.13250655 0.5127552 -0.058592156 -0.33638656 -0.17615344 -0.09772178
0.05699204 0.088138156 -0.062278945 -0.2643525 -0.18521367 -0.08014236 -0.28287628 0.5539979
-0.23152502 -0.0039825733 -0.15344578 -0.06331451 -0.2069215 0.022009367 -0.06660697 0.41953257

fc2.weight f4 [10, 256]
00000000: cd40 903d 50b7 d9bd 6152 efbd 28af dfbc
00000010: ff79 febd 2a79 b73c 69f2 cd3c b39a cabd
00000020: d056 f6bc 50c7 b4bd 19db 09be 9690 1ebe
00000030: 10da a7bd ffe7 98bd a32c cbbd 0d0e a0be
00000040: b446 27be 04bb 1e3d 62a7 28be ff48 5cbd
00000050: dced 58bc a5ce 2abe b0bd 06be 11fa 71bb
00000060: 7ecb 22be abf4 bbbc d410 743c c435 28bd
00000070: 6688 e5bc 9457 02bc c639 843d e5bb 1abe
00000080: d9ef 363d ea23 d73c 8185 213d 6bd7 c2bd
00000090: 85a2 233d 8143 57be 3b82 e53b ae7c c3bd
000000a0: 1d52 c3bc 1aba 25bd dd35 71bd 76a5 b2bd
000000b0: b8d7 debd a9d0 81bd 9c06 2ebe adcc bebd
000000c0: 8811 a33c e36e 46bb 5e2d aebd 8135 29bd
000000d0: 74d6 84bd 3319 1ebd 64cc 62bd 39fa 06bc
000000e0: 4a98 2cbe 0e3a 26bd 1861 a6bd d048 c6bd
000000f0: f1d7 0e3e 8f13 32bc e85f 9bbd 7692 38be
00000100: a4b4 85bd b699 84bd 5e8a 9fbd 9d11 54be
00000110: dc25 0fbd 434c 38bc 04b9 0cbd bc4d 793d
00000120: 1e3f 5abd 1587 cabd f0eb 6e3d c063 f5bd
00000130: 4504 963c 3df7 38bc a9a8 403d 8278 0fbe
00000140: 3077 81bc 92eb a6bd 1685 9839 d253 f2bd
00000150: 0ed8 14bd 1fe7 bb3c 5a9b 16bd fded 013d
00000160: e13b 613c c44e 8cbd 0975 c63b 714e c2bd
00000170: 478a f03b da33 e2bc 8ea5 a1bd 83d1 89bd
00000180: 1f46 85b8 5d46 3a3c 8159 c43b 2591 a3bd
00000190: 34b2 16be d9ed 29bd 2db9 98be e36b f6bd
000001a0: 37cd 573d 40e4 9bbc 52f4 273d c389 6a3d
000001b0: 5556 75bd 64c9 82bc 1399 42bc 3071 5c3d
000001c0: a7fc f8bd bbb6 c5bc 349c d03d 486b b0bc
000001d0: 56c3 433c e33f c0bd 35ef 57bd 598a f23b
000001e0: 7a20 31be f2df 11bd 71b9 273c e0c6 0cbe
000001f0: 4055 c6bd 5e58 1ebe 4442 cb3d fb2b 123d
00000200: b5cb 9b3c 0482 b6bd b9a5 0c3d 14ff 3ebd
00000210: f96d 0ebd 1835 48bd ee2e 9bbc e16a 29bd
00000220: 9775 1f3d 030e 42be b58c f4bc 5054 8fbd
00000230: fa2b f2bc ed94 2abe 3ebd cabc 787a 20bc
00000240: 6d24 00be 5b02 cebd 6771 5f3c 34a2 4ebd
00000250: 85ff 84bd 5db0 8d3d eefe 6dbd 1ed1 223d
00000260: 8431 20be 14a6 c53c 3b55 3ebd 6524 d3be
00000270: dfce 8cbd ca5f 7dbd 5d4a cabd a705 b03c
00000280: eff6 12be cd99 18be 1c68 13be adbe 52be
00000290: 689a 14bd dc00 57be d0c9 923d c925 a5be
000002a0: 6c96 813d d95b 8fbc 6ee5 983c 4915 b63c
000002b0: 7808 6b3c 287b b0bd d522 a3bd bc7a 2ebc
000002c0: ccc1 42be a7aa 11bc f157 113d c275 a0bd
000002d0: 8bf3 95bc 5de3 49be 510a 23bd f2b0 fbbd
000002e0: ad2e 37bb 4f85 1fbe cef5 4dbd 62e5 7abe
000002f0: b609 81bd 8740 1fbd 75d5 af3d e7ae 98bb
00000300: a16e b63c 036c 2cbe 6d1d 00be e100 46bd
00000310: fec1 09be 6a62 a1bc 1518 37be 9bdd 28be
00000320: 02af 16be 7fb5 d83c 6f1d 59bd 045e 113d
00000330: ab7c 98bd 7527 85bc 4fef cf3c a107 ea3c
00000340: d668 7abc 1d54 483c 6f2d 9c3d 8dfe 95bd
00000350: 7285 d1bd 868e 07bf 1fc8 0abb 8e0e 99bd
00000360: af6a 563d 3630 9ebd d29f 35be 61f6 8dbd
00000370: 3c0d 493c 46aa 95bd cd32 1f3d b035 f0bd
00000380: 4eca a9bb e56a d0bd 55a0 44bd f3a6 92bc
00000390: 3161 0ebe 25ce 0bbe 64a3 92bd e0ac d7bc
000003a0: 9ee7 ae3d f45d c4bc 1d9a e0bd 9fdd cfbd
000003b0: ec1e 05be 4838 b3bc 9da2 dcbc b6db 3abd
000003c0: 3444 febc 7976 27be d05a 473c c80c 5a3d
000003d0: 62cc 92bc 0648 f1bb 9a00 b13b 86ac 83be
000003e0: 7e83 06bc 7258 b6be e587 67bc cb30 1d3b
000003f0: ad8b e1bd 3921 9ebd 4835 13bd 4ec1 39be
0.0704361 -0.10630667 -0.116856344 -0.0273052 -0.12425613 0.022396643 0.025140004 -0.09892788
-0.030070692 -0.08827078 -0.13462485 -0.15484843 -0.08195889 -0.07466125 -0.09920623 -0.3126072
-0.16335565 0.03875257 -0.16470101 -0.053780552 -0.013240304 -0.16680391 -0.13158298 -0.0036922733
-0.15897939 -0.022943815 0.01489659 -0.0410669 -0.028019141 -0.007955451 0.06456332 -0.15110739
0.04466233 0.026262242 0.03943396 -0.09513744 0.039949913 -0.21021844 0.00700405 -0.09545265
-0.023842866 -0.040460683 -0.05888926 -0.087229654 -0.10880989 -0.06338627 -0.16994709 -0.093163826
0.01990582 -0.0030278496 -0.08504747 -0.04131079 -0.06486216 -0.03859825 -0.055370703 -0.008238369
-0.16854969 -0.04058271 -0.08123988 -0.09681857 0.13949563 -0.010868921 -0.07586652 -0.1802462
-0.06528595 -0.064746305 -0.07790063 -0.20709844 -0.034948215 -0.011248651 -0.034356132 0.06086515
-0.05328285 -0.09889046 0.058330476 -0.119819164 0.018312583 -0.011289415 0.047035847 -0.14010814
-0.015803903 -0.081504 0.00029090856 -0.11832394 -0.03633886 0.022937356 -0.03676925 0.031721104
0.013747186 -0.06850961 0.006056432 -0.09487618 0.0073407027 -0.027612615 -0.07892905 -0.06729414
-6.354995e-05 0.011369315 0.005992115 -0.079866685 -0.14716417 -0.041486595 -0.29828778 -0.120322965
0.052685943 -0.019029737 0.041004486 0.057260286 -0.059896786 -0.015965171 -0.011877316 0.05381888
-0.121575646 -0.024134984 0.101860434 -0.02153553 0.011948427 -0.093871854 -0.05271836 0.007401746
-0.17297545 -0.03561396 0.010237084 -0.1374774 -0.09684229 -0.15463397 0.099247485 0.035686474
0.019018034 -0.08911517 0.034337733 -0.04662998 -0.034772847 -0.04887876 -0.018943276 -0.041361693
0.0389305 -0.18950658 -0.02985225 -0.06998503 -0.029561985 -0.16658373 -0.02474844 -0.009794824
-0.12513895 -0.10059043 0.013637877 -0.050447658 -0.06494049 0.06918404 -0.058104448 0.03975021
-0.15643889 0.024127044 -0.046468 -0.41238704 -0.06875395 -0.06185893 -0.09877465 0.02148707
-0.1435201 -0.1490242 -0.14395183 -0.2058055 -0.036280066 -0.20996422 0.07167399 -0.3225539
0.06327519 -0.017499851 0.018664088 0.022226946 0.014345281 -0.0861724 -0.07965628 -0.010649379
-0.1901924 -0.008890784 0.035484258 -0.078349605 -0.018304607 -0.19715638 -0.03980476 -0.12289609
-0.0027951405 -0.15578197 -0.050283246 -0.24501565 -0.0630068 -0.038879897 0.085856356 -0.004659522
0.022269549 -0.16838078 -0.12511225 -0.048340682 -0.13452908 -0.019700248 -0.1788028 -0.16490786
-0.14715198 0.026453732 -0.053006586 0.03549005 -0.074456535 -0.016254166 0.025382666 0.02856809
-0.015283784 0.012227085 0.07625853 -0.07323942 -0.10230531 -0.5295185 -0.002117641 -0.07473479
0.052347835 -0.07724039 -0.17736748 -0.06931759 0.012271222 -0.07307868 0.038866807 -0.1172899
-0.0051815873 -0.101766385 -0.048004467 -0.017901873 -0.13904263 -0.13652857 -0.071600705 -0.02632755
0.08540271 -0.023970582 -0.10966895 -0.10149693 -0.13000077 -0.021877423 -0.026933009 -0.04561969
-0.031038381 -0.16353787 0.0121676475 0.053234845 -0.017919723 -0.007363322 0.005401683 -0.25717562
-0.008210061 -0.35614353 -0.014131521 0.0023985382 -0.11012969 -0.077211805 -0.035939485 -0.18140146

fc2.bias f4 [10]
00000000: eab9 19be 034c 9cbe 370d 30bf 05b5 d43d
00000010: dc2d e23e 664a 18bf 77cd 763c ace3 e73e
00000020: 786b 023e b4da d73c
-0.15012327 -0.30526742 -0.68770164 0.10386089 0.44175613 -0.59488523 0.015063635 0.45290887
0.12736309 0.026349403
