Exercise5/remote/packages/digit_detection/src/mlp-ex5-model.pt (torch, 891495 bytes, 6 tensors)

input_fc.weight f4 [250, 784]
000000 ee 43 0c bb 1d f5 0d bd 45 55 31 3c d8 ec 01 3d
       -0.0021402794 -0.034657586 0.0108235525 0.031720012
000010 1c 79 bf bc 0a 93 cb bc 0c fa 88 3c 62 9e 02 bd
       -0.02337318 -0.024850387 0.016720794 -0.031889327
000020 25 06 8a bc 67 75 b9 bc 81 d0 e3 3b 9c 4e 06 3c
       -0.016848633 -0.02263899 0.006952346 0.008197453
000030 a1 d5 43 bc 2e 9d b9 3c 9d 02 0e 3d aa 96 bd 3c
       -0.011952789 0.022657957 0.03467046 0.023143131
000040 6e 93 d2 bc c2 67 01 3d 93 8b 4a 3b 5c 5d 9a 3b
       -0.025705066 0.03159309 0.0030905947 0.0047108363
000050 65 5c d8 3c 93 0f ff bc 78 35 fc 3c 93 84 ad b9
       0.026411245 -0.031135356 0.030787215 -0.00033095907
000060 33 2f 62 bc 8a 9d d0 3b 5f 36 05 bd 13 19 0d bb
       -0.0138051985 0.0063664364 -0.032522555 -0.0021529838
000070 0a 72 ad 3b 53 57 c6 bc 00 8c 8f bb 71 79 b9 bc
       0.0052931355 -0.024211561 -0.004380703 -0.022640916
000080 b5 8d 99 3c b6 50 04 3d ee 70 0b 3b 33 4f c1 3c
       0.018744329 0.032303534 0.0021277028 0.023597335
000090 cc 62 03 bd 97 a4 1b 3c 13 1f e7 3c e0 e4 06 bc
       -0.032076642 0.0094996905 0.02821306 -0.008233279
0000a0 08 2f 0a 3d b8 2b 0e bd c1 82 f0 bb 9c 58 fd 3c
       0.03373626 -0.034709662 -0.007339806 0.030926041
0000b0 dc b6 57 37 01 b7 6f 3b f7 e5 48 3c ee d4 21 3b
       1.2857574e-05 0.0036577585 0.012261859 0.0024693566
0000c0 43 e3 11 3d a1 be cd bc f7 05 00 3c ee e3 9e 3c
       0.035617124 -0.025115313 0.007813922 0.019395795
0000d0 c7 57 d7 bc 4a a9 0a bd 4a ce c2 3b 57 c5 9d 3c
       -0.026286973 -0.033852853 0.0059450017 0.019259138
0000e0 ea 1d 83 bc 65 e7 e8 bb c1 37 5c bc a1 41 c9 3c
       -0.016005475 -0.0071076625 -0.013441027 0.024567427
0000f0 a0 10 17 3c 97 d0 d3 bc 9c ab fd 3c 37 ef 11 3c
       0.009220272 -0.0258563 0.030965619 0.008907131
000100 a6 7d 00 bd 40 7e 28 3c cc 7f 9b bc 23 d4 8a bc
       -0.031369828 0.010284007 -0.018981837 -0.016946858
000110 fc 53 e0 bc da 07 fd bc da 09 b7 3c 4e 2a 44 3c
       -0.027383797 -0.030887533 0.022343565 0.011972977
000120 ca b8 bb 3c 6e ab 94 ba 8e 20 74 bc 2c 9d d0 bc
       0.022915263 -0.0011342594 -0.01490034 -0.02546557
000130 4e dc 0c bc 40 95 97 3b 4c 48 df bc 35 b2 c0 3c
       -0.008597447 0.0046259463 -0.027256154 0.023522476
000140 4a 5c 23 ba 6a 94 c6 3c 81 eb 74 3c fc 90 51 3c
       -0.00062317087 0.024240691 0.014948727 0.012790915
000150 6a 6d bb 3c 9a 4f c0 bc dc da b3 3b 95 32 86 bc
       0.022879321 -0.023475457 0.0054887366 -0.016381541
000160 f7 60 b8 bc ae ae 43 bc 2e 2d a2 3b c1 05 6c bc
       -0.022507174 -0.011943502 0.0049492335 -0.014405669
000170 ee d2 e7 bb 33 a5 b0 3c e3 f7 bb 3c 1c ca 00 3c
       -0.0070747053 0.021563148 0.02294535 0.007860687
000180 41 a4 4b bc 73 a5 f3 bc 6e ca 7a bb 0c 62 03 3d
       -0.012429298 -0.029741978 -0.003826763 0.032075927
000190 93 7e c9 ba ae ee 79 bc d8 c3 fb 3c 41 7d 34 3c
       -0.0015372805 -0.01525466 0.030733034 0.011016191
0001a0 81 9e f4 bb 93 a4 8d 39 1a 0b d6 3c 45 0d a8 bc
       -0.007465184 0.00027016233 0.02612834 -0.02051414
0001b0 23 9e 9d 3c 41 cf c1 3b 31 2e b3 bc 07 fd cb bc
       0.019240445 0.005914599 -0.021872612 -0.024900926
0001c0 23 8a d5 bc 6e b9 01 bc e1 9c ab bc b3 8d a5 bc
       -0.026066845 -0.007917745 -0.02094883 -0.020209169
0001d0 cc f1 05 bd ca 70 ae 3c 00 60 04 bd 6a 92 1a 3c
       -0.0327013 0.021294016 -0.032318115 0.009434322
0001e0 dc 93 df bb 93 50 0c ba 43 2a a0 3c 4e af a2 bc
       -0.006823046 -0.00053525827 0.019551402 -0.019858982
0001f0 5c 3f 1c 3c 86 81 0d bd ca 36 48 3b b8 24 f0 bc
       0.00953659 -0.03454735 0.0030550235 -0.029314384
000200 53 f9 2f 3c c7 91 86 bc 9c da de 3c ca 03 94 3c
       0.010740596 -0.016426934 0.02720385 0.018068213
000210 6e ad 1b 3c 48 96 04 bd d7 87 06 3d 33 4b 08 3d
       0.009501798 -0.032369882 0.03284439 0.03327484
000220 c0 15 99 bc 4a da 0f 3a 50 6d 0b 3d 4a 38 61 3a
       -0.018687129 0.00054875447 0.034039795 0.00085914566
000230 61 a2 38 3c 93 94 c6 bb ca 4a db 3c ee 34 83 bb
       0.011269183 -0.006060192 0.02676906 -0.0040041124
000240 6e e3 8c bc 8e 09 3c 3c 45 7f 05 3c dc dd e7 bb
       -0.01719829 0.011476887 0.008148019 -0.0070760082
000250 61 ea 7a bc 95 58 d0 bc cc 21 de bc 05 c0 e1 bc
       -0.015314669 -0.025432864 -0.027115725 -0.027557382
000260 01 6d 4d bb 81 27 f1 bb 00 02 a3 3a 63 73 86 3c
       -0.003134549 -0.0073594456 0.0012436509 0.016412443
000270 77 1b 9e bb 37 89 d8 3c 5c 37 f0 3b 9c 00 ca 3c
       -0.0048250514 0.026432617 0.007330818 0.024658494
000280 9a 9e 9a bc e5 1f 49 3c 4a 5e 0a 3b d7 51 05 bd
       -0.018874455 0.012275671 0.002111333 -0.03254875
000290 17 b6 b6 bc 52 33 0f bd 0c 62 ae 3c dc 7c 3a bb
       -0.022303624 -0.034961052 0.021286987 -0.002845577
0002a0 c1 2e b0 bc 93 93 ac 3b d7 01 89 3c 4e 90 22 3c
       -0.021506669 0.0052666157 0.01672451 0.0099221
0002b0 5f 5f 06 bd ee 83 15 bb ca 68 bf bb 87 f8 c9 bc
       -0.032805797 -0.0022814232 -0.0058413493 -0.02465464
0002c0 9e 45 ce 3c 2a 88 9d bc b7 3b ac bb a0 3a 03 3d
       0.02517968 -0.019229967 -0.005256142 0.03203833
0002d0 8e 6a 83 3c 37 71 2f bb fe 02 c2 bc e5 f9 13 bc
       0.01604202 -0.0026770362 -0.023683067 -0.0090317475
0002e0 d0 be 04 bd ce b6 3e bc 41 04 b8 3b 4e 7b 82 3c
       -0.032408535 -0.011640264 0.0056157415 0.015927937
0002f0 8a 58 07 bd a7 c2 05 bd be 1c f3 3c 97 df c6 bc
       -0.03304342 -0.032656338 0.029676791 -0.024276538
000300 ee 9d f6 bc a7 e2 07 3d d5 98 91 3c f4 6f 03 3d
       -0.030104604 0.033175137 0.017773071 0.03208919
000310 4a 57 b4 bb ce 60 f4 3c 7b e8 05 3d d0 0a a0 bc
       -0.0055035697 0.029831316 0.032692414 -0.019536406
000320 33 cb 1b 3c 00 aa 90 3a 2a 93 82 bc ca 1a 58 3b
       0.009508896 0.0011036992 -0.015939314 0.0032974952
000330 55 a7 d2 bc d7 a9 1a 3c de fd bc bc 37 92 5a bb
       -0.025714556 0.009439907 -0.023070272 -0.003335131
000340 dc 23 1f 3c 6e 33 7e 39 25 a8 b8 3c a5 26 93 3b
       0.009713139 0.00024242487 0.022541115 0.004490691
000350 0a ed 40 3c f6 3d 05 bd 6e 47 9d b9 25 12 48 bc
       0.0117752645 -0.032529794 -0.00029998593 -0.012211357
000360 b8 db e5 bc b2 2a 05 bd c3 a9 d6 3c eb 78 07 bd
       -0.028058872 -0.03251142 0.026203996 -0.0330743
000370 ee 12 ad 3c 4a 58 13 3b 4a c0 ef ba bc 18 89 3c
       0.02112719 0.0022483044 -0.001829156 0.016735427
000380 ef 1e 00 bd ae 51 b2 bb 46 59 01 3d 85 24 fa bc
       -0.0312795 -0.005441866 0.03157928 -0.030534992
000390 b8 76 ed ba 12 03 00 3d 6a 76 3d 3c 24 9d 04 3d
       -0.0018117046 0.031252928 0.011563877 0.032376423
0003a0 44 85 0f 3d ee 9f 16 3c 60 60 26 3c 13 b1 8e bb
       0.0350392 0.009193404 0.0101548135 -0.004354605
0003b0 7b a4 0f 3d 6e 7e fb ba 61 29 70 bc e3 12 a2 3c
       0.03506897 -0.0019187459 -0.014658303 0.019784397
0003c0 83 59 aa bc dc 36 05 ba aa 4b d7 bc 00 da 02 bc
       -0.020794636 -0.0005081722 -0.026281197 -0.007986546
0003d0 a5 29 3c bc f0 ba 03 3d dc 16 81 3c 97 95 59 3c
       -0.011484538 0.0321607 0.01575797 0.013280294
0003e0 b7 90 98 3c 4e 77 af bc 3c 2d 10 bd 03 bb 8a 3c
       0.018623693 -0.021419194 -0.03519939 0.016934877
0003f0 ec 0f 8e 3c 9e 8c c0 3c d8 4c 78 3c 2a 94 4a bc
       0.017341577 0.023504552 0.01515504 -0.012364427

input_fc.bias f4 [250]
000000 e2 0b 0c bd 67 a9 85 bc f5 76 30 bc c1 aa 1a bb
       -0.03419102 -0.016316129 -0.010770549 -0.0023600312
000010 64 b4 17 3d 33 19 72 3c 3f c5 b0 ba 2f 9d ae 3c
       0.03703727 0.014776516 -0.0013486518 0.021315185
000020 6a 7e f8 bc 2c 1a a7 bc 6c 27 b8 bc ad c3 66 bc
       -0.030333716 -0.020398222 -0.022479735 -0.014084739
000030 70 b3 c3 3c 5d 6e 17 bb 3f c7 84 3c 19 dc 27 bd
       0.023889273 -0.0023106553 0.01620829 -0.040981386
000040 84 88 57 bc a1 93 b4 bc bc 17 1b 3c a2 20 dd bc
       -0.013155106 -0.022043051 0.009466108 -0.0269931
000050 89 cb ed bc d0 dc 4e bc 53 2a 14 bd 4e 03 29 bc
       -0.029027717 -0.012625888 -0.036173176 -0.010315729
000060 88 bf 9b 3c 2e f6 bd 3c 42 c5 90 bc 7d 17 9e bb
       0.019012228 0.023188677 -0.017672185 -0.0048245774
000070 aa 86 a3 bc 34 74 bf bc 97 af b1 3c 44 ba 12 bd
       -0.019961674 -0.02337084 0.021690173 -0.035822168
000080 47 79 26 bc b7 3b 49 3c dd 72 e0 bc c4 de 39 bc
       -0.010160751 0.012282304 -0.027398521 -0.011344615
000090 f8 18 7c 3c ed 40 d0 bc c8 45 c4 bc 1e 50 e0 bc
       0.015386812 -0.025421584 -0.023959056 -0.027381953
0000a0 6e b6 c3 3c 4d 81 6b 3c 25 85 c8 bc 52 9b bb bb
       0.0238907 0.014374089 -0.02447755 -0.0057253027
0000b0 98 0a 09 3c 02 29 87 bb aa f0 78 3c db 27 06 bc
       0.008364342 -0.0041247616 0.0151940975 -0.008188213
0000c0 1a 25 cf bc aa e2 a9 bc 92 cc a8 bb ba 00 eb 3c
       -0.025286246 -0.020737965 -0.00515134 0.02868687
0000d0 9e f8 64 3c 0f 14 32 bd a7 44 d3 3c d2 32 88 3c
       0.013975291 -0.04347616 0.025789572 0.016625796
0000e0 40 25 1a 3c ab e4 bc 3c 31 91 c0 bc b8 c9 70 3c
       0.009408295 0.023058256 -0.023506733 0.014696531
0000f0 44 a0 07 3d c9 61 c7 3c b5 3c 61 3b e5 94 b2 bb
       0.033111826 0.02433862 0.003436846 -0.0054498785
000100 9a 72 9e 3c e5 b7 f0 3c ca ba fd bb 03 c7 10 bd
       0.019341756 0.029384563 -0.0077432143 -0.035346042
000110 20 56 02 3d 84 ff e3 3b 35 84 dd bb b5 a2 ce 3c
       0.031820416 0.00695795 -0.006760145 0.02522407
000120 88 56 9f bc 46 62 a5 3c 75 c5 71 bc 69 6d b0 3c
       -0.019450441 0.020188462 -0.01475655 0.021536546
000130 0a 15 2b bc 62 d0 25 bd 5c d0 b5 bc 42 2a 63 bb
       -0.010442028 -0.040481932 -0.02219408 -0.0034662639
000140 66 99 5d bc 43 02 9a bc e1 29 09 bd 75 65 43 bb
       -0.013525343 -0.018799907 -0.033487204 -0.0029815112
000150 fa 06 97 3c 6f 0f a6 3c e3 38 ab 3c 7e 74 ce bc
       0.018435944 0.020271031 0.02090115 -0.025202032
000160 c1 24 74 3c 45 80 2c 3b 8d c8 ac bc 9f 60 6c 3c
       0.014901341 0.0026321572 -0.021091724 0.014427333
000170 35 5e 1d bd 4a 47 cd ba 78 4d 92 38 ee df 11 3d
       -0.03841992 -0.0015661505 6.976252e-05 0.035613947
000180 88 c5 1a 3b d8 e8 12 bb df 99 79 bc 27 1d c0 bb
       0.0023616273 -0.0022416618 -0.01523444 -0.00586285
000190 bc f8 ce bb 5b bf 23 3c 4a 29 d1 38 d9 90 41 3c
       -0.0063162725 0.009994353 9.973587e-05 0.0118143195
0001a0 62 18 55 bc 27 8c 1b bd ab 1c a6 3c cb 56 03 bd
       -0.013006302 -0.037975457 0.020277342 -0.032065194
0001b0 65 ac 89 3c 2e 23 06 3c 60 04 36 3c 38 ce cb bc
       0.016805837 0.008187098 0.0111094415 -0.024878606
0001c0 9b fe 55 3c d2 e3 63 3c b6 48 a9 3c be 41 a5 bc
       0.013061191 0.013909297 0.020664554 -0.02017295
0001d0 a8 ac 11 bd e0 fb a0 bc e4 02 70 3b d4 ee 54 3c
       -0.03556505 -0.019651353 0.0036622817 0.012996394
0001e0 2b b8 46 3c 86 b3 a1 bc 37 70 b0 3c 64 f1 49 3c
       0.01212887 -0.019738924 0.021537883 0.012325618
0001f0 e4 c5 45 bb fd 2e 94 bc 15 5b aa bc cb 1f 11 bc
       -0.0030177766 -0.018088812 -0.020795384 -0.008857678
000200 66 fb 1e bd ac 4b fd bc 8f 33 d6 3c b6 b6 0b 3d
       -0.03881397 -0.030919872 0.026147632 0.034109794
000210 84 50 f9 3b cf 30 17 3d 6b 37 ba 3c f7 ed e8 bc
       0.007608475 0.036911782 0.022731503 -0.028433783
000220 1e 69 11 bb c9 f4 fc ba 8f bb fc 3c f7 eb f1 3a
       -0.00221879 -0.0019299026 0.030851154 0.0018457164
000230 d8 77 83 3c da 15 5e bc c0 04 c9 bc 9d 65 bd bc
       0.016048357 -0.0135550145 -0.024538398 -0.023119742
000240 27 93 0f 3d 91 7a 80 3b 73 85 2f 3c 4e be c5 3b
       0.035052445 0.003920861 0.010712969 0.006034649
000250 ba fa 1b 3c 03 91 49 3c cc d8 48 ba 9d 27 c0 bc
       0.009520227 0.01230264 -0.00076617 -0.02345639
000260 9d 4f a1 bc 85 9c 31 3c 10 5d 1b bc bf e5 19 bd
       -0.019691283 0.01084054 -0.009482637 -0.03757262
000270 03 00 30 ba 25 0d b5 3a 67 89 af 3c 6d 38 c2 3c
       -0.0006713869 0.0013813121 0.021427823 0.023708547
000280 62 c0 9f bc 1b 65 21 3c 17 e2 ca bb 0b 84 89 bb
       -0.019500915 0.009850766 -0.006191503 -0.004196649
000290 87 82 cc 3c fa e1 17 bd 17 f8 16 3c 74 4c 87 bc
       0.024964584 -0.037080742 0.009214423 -0.016515948
0002a0 3e f6 90 3b 4c a9 84 bc db 97 07 bd cc 4a 92 3c
       0.0044238856 -0.016194008 -0.033103805 0.017857932
0002b0 c8 43 da bc ff 7a 83 bc 0a 87 06 bd 3a 8f 17 bd
       -0.026643649 -0.01604986 -0.032843627 -0.037001826
0002c0 fc cd df bc 57 49 ff 3b 24 24 9c bc 2d 3b b9 ba
       -0.0273199 0.007790725 -0.019060202 -0.0014132016
0002d0 c1 52 15 bd 6b dc 38 bc 3d ad b2 3c e5 84 f0 bc
       -0.036455873 -0.0112830205 0.021811122 -0.029360244
0002e0 55 ca 04 3d df f0 e7 bc 08 ff 11 bd b7 e2 a8 3c
       0.03241952 -0.028313098 -0.035643607 0.020615919
0002f0 81 17 7f bb 5e 0e b8 3c f7 0e c0 3b 0e bf 18 bc
       -0.0038923922 0.022467788 0.005861159 -0.009322895
000300 23 2e 0f bd 96 55 e6 bb 0a 5d 51 3b c4 20 d6 bc
       -0.03495611 -0.0070292456 0.0031946325 -0.02613867
000310 db 91 92 3c 0e 44 97 bc 04 69 c6 3c 5a e2 5f bc
       0.017891815 -0.018465068 0.024219997 -0.013664806
000320 4e 37 e3 bc 85 f9 27 bd 22 4c 78 3c 4e 1c b0 bc
       -0.027736332 -0.041009445 0.01515487 -0.021497872
000330 a4 30 91 bc 3b d3 aa 3c e2 b6 3f 3c fa 2a eb 3c
       -0.017723389 0.020852676 0.0117013175 0.028707016
000340 5b d9 ba 3c f1 ca 25 bc 59 11 55 3c b3 fa 57 bc
       0.022808721 -0.010119186 0.013004624 -0.01318233
000350 30 50 12 bd d7 d1 10 bd e3 e9 6d 3c 32 f7 e2 3c
       -0.035721004 -0.03535637 0.014521095 0.027705763
000360 4b 3b 11 3d 10 4f 2b bc 21 87 2d bc 03 cb e8 3c
       0.035456937 -0.010455862 -0.010591299 0.028417116
000370 5a 29 83 3c 8c e9 6e 3a a8 b3 d5 3c 16 01 a7 3c
       0.016010929 0.00091137807 0.026086643 0.02038626
000380 b0 12 67 3c 27 28 c3 3b a1 c4 08 b8 a8 32 b3 3c
       0.014103577 0.0059557143 -3.260805e-05 0.02187474
000390 f3 57 c0 bc 00 8e e8 bb 84 ff ec 39 6f a7 7a 3c
       -0.023479437 -0.007097006 0.00045203802 0.015298708
0003a0 3e a5 14 3c e8 89 e4 3c c3 f1 0d 3c ab 49 5c 3c
       0.0090726 0.02789779 0.0086635975 0.013445298
0003b0 cb c8 c9 bc 90 18 13 bd 55 1c bf bc 3b 34 2d 3b
       -0.024631878 -0.035912097 -0.02332894 0.0026428837
0003c0 7a 3f b2 bc c1 5b d2 bc 71 26 01 bd 76 8e ae ba
       -0.021758784 -0.025678517 -0.0315308 -0.0013317603
0003d0 8e 7c 24 3c b4 e3 e1 bb df 4a 0d bd 5e f5 17 3c
       0.010039462 -0.0068935994 -0.03449523 0.009274809
0003e0 f3 0c f9 bb ce 04 72 3c
       -0.0076004206 0.014771653

hidden_fc.weight f4 [100, 250]
000000 b6 e6 aa bc 60 c9 3d bd fe 8f 1f bc c4 24 c2 bb
       -0.020861965 -0.046334624 -0.00973892 -0.005924793
000010 6c 12 19 bd 50 c0 9f 3c c1 1e 8b bc 48 2f 80 3d
       -0.037371084 0.019500881 -0.016982438 0.06259018
000020 3b 25 6d bd 7d fe 21 3b 27 7f 15 bd b3 01 2c bd
       -0.057896834 0.0024718337 -0.036498215 -0.041993808
000030 b6 b3 fd bc 80 c3 30 bc 87 6e 12 3d 44 a3 85 3c
       -0.030969482 -0.010788798 0.03574994 0.016313203
000040 b4 dc 1b bd 30 cb 68 bd db 6a 22 3d f7 46 12 3d
       -0.038052276 -0.0568344 0.039652687 0.03571221
000050 ac 27 4d 3d 9d 56 d1 3b 54 e6 4f 3d ef 7e 19 3c
       0.050086662 0.006388499 0.050756767 0.009368642
000060 dc fd 10 3a 07 7d a4 3b 19 86 43 3d 3c 1d 0e bd
       0.0005530992 0.0050197872 0.047735307 -0.03469585
000070 bd aa 0d 3c af e4 95 bc e0 da 60 bd 4a cd 1b 3d
       0.008646664 -0.018297521 -0.054896235 0.038037576
000080 74 ea 1e b9 c6 01 34 3d 78 33 5b 3d 70 20 bd 3b
       -0.00015155395 0.043947004 0.05351588 0.005771689
000090 b8 ce de bc 33 eb 20 3d 79 f3 69 3d 86 8a 52 bc
       -0.02719818 0.039286803 0.05711696 -0.012850409
0000a0 76 a0 ec 3c 15 bc 31 3d b0 8a 0e 3d 49 4c 85 bd
       0.028885107 0.04339226 0.03480023 -0.06508691
0000b0 bd 6b 1a bb 1b 43 59 bd 46 18 b3 bc 33 8b 6b bc
       -0.0023562752 -0.053042512 -0.02186216 -0.014376449
0000c0 47 d6 62 bd 59 f4 67 3d e5 2a 80 bc ba f5 28 bc
       -0.055380132 0.056629512 -0.015645454 -0.010312492
0000d0 59 e7 ec 3b 16 b2 63 3c 49 d4 57 bd 24 1a 74 bc
       0.007229727 0.013897439 -0.052692685 -0.014898811
0000e0 a1 d3 01 3d b4 09 3e 3c 70 86 51 3d 93 7a 08 3b
       0.031695966 0.011598993 0.0511536 0.0020825013
0000f0 19 97 14 3b bf 42 75 bd d5 33 3a bb eb d4 14 3d
       0.002267307 -0.059878107 -0.0028412242 0.036335867
000100 29 a5 1d 3d 3f 14 43 bd 40 f3 57 3c 14 44 07 3c
       0.038487587 -0.04762673 0.013180554 0.008255977
000110 f8 bd bf 3c 4e 26 80 3d 94 4a ca ba 31 a5 80 3c
       0.023406014 0.06257306 -0.0015433603 0.01570377
000120 95 a8 87 3d 0c be 8e bc ae 68 44 3d 36 db 26 bd
       0.06623951 -0.017424606 0.047951393 -0.0407364
000130 e7 2e 32 bd 06 d0 50 3d 74 1f 3b bd a0 a5 c2 3b
       -0.04350176 0.050979637 -0.045684293 0.005940154
000140 c7 f0 83 3c b8 ea 24 3d b8 2f 46 3d ff 55 a3 3b
       0.016106023 0.040262908 0.048385352 0.004984617
000150 3a 08 80 3c 0c 95 30 bd cd b5 f3 3c 08 25 d4 3c
       0.015628923 -0.043110892 0.029749775 0.025896564
000160 55 5a 2f bd 27 6f 10 3c a0 fb 49 3d 31 39 20 bd
       -0.042810757 0.008815563 0.049312234 -0.039117042
000170 85 75 e9 3c 1a 41 52 3d 45 e4 99 3c 41 73 9f bc
       0.02849842 0.051331617 0.018785605 -0.019464137
000180 ae f2 ed bc 08 e0 24 bd 6c f1 80 bd b7 34 8a bc
       -0.029046383 -0.040252715 -0.062960476 -0.01687084
000190 a1 44 80 bd 94 a7 16 3c 77 5e 3c bd 07 9e 91 bc
       -0.0626309 0.009195227 -0.045988526 -0.017775549
0001a0 d5 d4 ed bc 12 98 78 3d 50 be 08 3c 0e f1 50 bd
       -0.02903215 0.0606919 0.008346155 -0.051011138
0001b0 5c 33 ea 3c 04 a8 e3 3c 36 bf 23 3d 0b 41 cd bb
       0.028588943 0.027790077 0.039977275 -0.0062638572
0001c0 7e 4a bb bc bc 43 7a bd 2c 16 ca 3c 35 f9 5f bd
       -0.02286267 -0.061099753 0.024668775 -0.05468102
0001d0 42 3e 41 3c 25 e7 d9 3c f0 61 4e 3d 97 c1 84 3b
       0.011794629 0.026599476 0.05038637 0.004051398
0001e0 0b 62 87 bc c5 20 bb bc 05 1d a5 3c c4 24 3e 3d
       -0.016526243 -0.022842774 0.02015544 0.04642178
0001f0 e1 bd 29 bd 56 d0 62 bd b6 0d 69 bd c5 07 27 bd
       -0.04144085 -0.055374466 -0.05689784 -0.040778894
000200 7b 2c 85 3c 04 9a b6 bc 28 9d b5 3c 53 5d 7e bd
       0.016256562 -0.022290237 0.022169665 -0.06210072
000210 7d c5 fa 3c 2b ea 5e 3c d4 c3 32 3d b8 a4 24 bd
       0.030611748 0.013605635 0.043643788 -0.04019615
000220 0c a4 1e bd 43 76 41 bd 6c d7 b5 3b 92 ea a1 bb
       -0.038730666 -0.047231924 0.005549362 -0.004941293
000230 c3 0f 59 bd 4b 45 fc 3c 4a a3 72 bc 60 79 29 bd
       -0.052993547 0.03079476 -0.014809439 -0.041375518
000240 d8 a8 fb 3c b7 8f f1 3a ae fc 18 3d 6f 9c 45 3c
       0.03072016 0.0018429671 0.03735035 0.012061222
000250 4a 3e 3a 3b 62 cc 5a bc c6 c8 fe bc 39 07 08 3d
       0.0028418475 -0.013354393 -0.031101596 0.033210013
000260 13 44 ce 3c 45 c3 35 3d c5 9d c8 3c ac 62 53 bd
       0.025178945 0.044375677 0.024489293 -0.051607773
000270 90 e3 35 bd c5 24 73 bd ad e7 5b bc 69 86 9f b9
       -0.044406474 -0.059361238 -0.013421935 -0.00030426987
000280 67 4c 3c bd 64 26 05 3d 67 39 47 bd b3 db ca bc
       -0.0459713 0.032507315 -0.048638728 -0.024762964
000290 d3 7d bd bb 2f f4 7b 3d 0a 9f 0e bd ba 04 f3 3b
       -0.0057828217 0.06151217 -0.03481964 0.007416335
0002a0 c5 43 67 3d ee a1 61 3d 4a 4c 0c bd 3b 1a c2 3c
       0.056461114 0.05508607 -0.034252442 0.023694148
0002b0 e3 b2 67 bd ee 9a e1 3c fa aa 65 3d cf f0 87 3d
       -0.056567084 0.027539697 0.05607126 0.066377275
0002c0 ea 22 50 3d da 25 31 bd 0b 1d 8c 3d 55 70 0a 3d
       0.050814547 -0.04324899 0.06841477 0.033798534
0002d0 e4 db c6 bc c4 a1 2a bd 70 fc cb bc 82 ba 57 bd
       -0.024274774 -0.041658178 -0.024900645 -0.052668102
0002e0 52 49 24 3c 65 d8 5c 3b a0 42 27 3d f5 4d 59 3d
       0.010027247 0.0033698317 0.040835023 0.05305286
0002f0 6d 30 6a 3d 6c 47 4a bd 54 6b 7e 3d 54 92 13 3d
       0.05717509 -0.04938452 0.062114075 0.03602822
000300 b5 ad b8 3c cd 9a 0e bd b3 d8 00 3c 77 67 cf 3c
       0.022543767 -0.0348156 0.007864165 0.02531789
000310 6d 7c b8 bc 66 97 40 bd 92 46 11 3d cd 82 73 bd
       -0.022520268 -0.047019385 0.03546769 -0.059450913
000320 57 79 0b 3c a1 6d 05 bd 4d 8f ed bc 49 87 12 3d
       0.008512816 -0.032575253 -0.028998995 0.03577355
000330 29 49 db 3c 39 ef b7 ba 45 a8 e4 3c 54 5c 1c 3c
       0.026768284 -0.0014033086 0.027912268 0.009543497
000340 56 b7 82 3d 91 65 31 3c 0e 41 39 bc b5 82 f5 bc
       0.06382625 0.010827438 -0.011307014 -0.029969553
000350 a3 8e 1f 3c 78 6d fd bb 38 ae 51 3b 04 8c e1 bc
       0.009738597 -0.007733997 0.0031994712 -0.027532585
000360 b4 ea 9a bc d6 a9 6f bd c7 b3 84 3c 76 6b fb bc
       -0.018910743 -0.058511578 0.016199006 -0.03069089
000370 07 1c 3b bd b9 48 70 bd f2 96 af 3c 76 0a 1c bc
       -0.045681026 -0.058663104 0.021434281 -0.009523978
000380 61 ee cf bc b6 15 f1 3c bf 1f 5e 3d 2e e4 10 3c
       -0.025382223 0.029429298 0.054229494 0.008843465
000390 7d 5e a3 3c d5 b3 ec 3c 43 45 d7 3c a7 f1 e9 bc
       0.019942516 0.028894344 0.026278144 -0.028557612
0003a0 aa ba 10 bd 03 49 17 bc ed 76 8a bd b1 76 77 bc
       -0.035334267 -0.009233716 -0.067609645 -0.015103982
0003b0 8c 57 5f 3c 73 b4 81 bd d7 85 03 3d d5 17 43 bd
       0.013631713 -0.06333246 0.03211006 -0.04763015
0003c0 40 cc bc ba 6e 64 58 bc 0c 16 5d bd 1d dd 57 3d
       -0.0014404133 -0.013207538 -0.053976104 0.052701104
0003d0 6d f1 28 3d 0f b0 1f bc 7b d3 85 bb 5b 95 68 bd
       0.041245867 -0.0097465655 -0.0040840483 -0.05678306
0003e0 58 30 48 bd 22 8c 67 3d 1b e3 ec bc 1b a0 4c bc
       -0.04887423 0.056530125 -0.028916886 -0.012489344
0003f0 40 0a 63 3c f5 48 3e bd 18 05 07 bd 04 04 44 3d
       0.013857424 -0.046456296 -0.032963842 0.047855392

hidden_fc.bias f4 [100]
000000 00 83 ba bc fd ea 0d bd 2c 04 ea bc e8 33 28 bd
       -0.022767544 -0.03464793 -0.028566442 -0.041065127
000010 f2 26 5c 3d 1a a8 ac bc bc 2f 5a bb 6e 18 03 3d
       0.05374808 -0.02107625 -0.0033292612 0.03200572
000020 9b 03 80 bc 77 1b c7 bc 73 f2 18 bd 0b d0 38 3d
       -0.01562672 -0.024305088 -0.037340593 0.04512028
000030 d3 e2 cd bc 58 79 48 3d 29 73 1d 3d 58 6b 44 bc
       -0.025132572 0.048943847 0.038439903 -0.011988483
000040 26 ef 51 bc 91 e4 5d 3d d9 39 6b 3d a5 94 4d 3d
       -0.012813365 0.054173056 0.057428215 0.050190587
000050 fa e0 7a 3d 05 8c bd bc c6 8b 9c bc 2b 9a a5 3a
       0.06124971 -0.023138056 -0.019109618 0.0012634447
000060 2f 0e 12 bd cd de 12 3d a6 ac 9e 3c cc 10 83 bc
       -0.035658058 0.03585701 0.019369435 -0.01599922
000070 6f 3f 97 bc f4 72 35 bc 65 82 1f 3d 5a eb aa bc
       -0.018462865 -0.01107477 0.038942713 -0.020864177
000080 32 5c 29 3d 53 50 78 bd 90 f3 38 bd 73 29 c7 3c
       0.04134769 -0.06062348 -0.045154154 0.024311757
000090 92 4f 54 3d c7 5a 5b 3d 78 10 83 bd 06 14 44 bd
       0.051833697 0.05355337 -0.063996255 -0.04787066
0000a0 81 9b 34 3d 7e 6d 4e 3d df 0d 32 bd ff ac 09 bd
       0.044093613 0.05039739 -0.04347026 -0.033612248
0000b0 7d 6f dd bb 09 61 91 3b a9 93 58 3d 43 d3 8f bd
       -0.006757675 0.0044366163 0.052875195 -0.07022717
0000c0 ed 27 37 bc ac 24 8c bd e0 12 aa bc e8 13 92 3c
       -0.011178953 -0.06842932 -0.020760953 0.017831758
0000d0 64 6b 2c bc 66 57 d6 bc 04 ad 6c bd d8 09 77 bd
       -0.010523651 -0.026164722 -0.057782188 -0.060312122
0000e0 67 f5 04 bd fa f0 60 3c 33 90 12 3d 9f 77 97 bc
       -0.032460596 0.013729328 0.03578205 -0.018489657
0000f0 87 d1 a0 3a eb 35 c3 3c 20 20 15 bd a1 1d b4 bb
       0.0012269475 0.023829421 -0.03640759 -0.005496696
000100 9b d0 af bc 53 1a 26 bd 40 a9 86 bd 70 70 9e bc
       -0.021461776 -0.04055245 -0.065752506 -0.019340724
000110 f2 f9 38 bd b5 5a 2f bc a1 05 e2 3c ab e1 3e 3d
       -0.04516024 -0.010702779 0.027590575 0.046601932
000120 f4 d8 d7 bb f7 35 93 bd 20 79 0b bd fe e2 bf bc
       -0.006587142 -0.07188027 -0.03405106 -0.023423668
000130 8c cf e4 3c 01 94 cf 3c a6 ba 78 bd 1e 5c 8b 3c
       0.027930997 0.025339128 -0.060724877 0.017011698
000140 73 86 3a bc 65 66 1f 3d f8 93 66 3a 5f ea aa ba
       -0.011384594 0.03891601 0.0008795853 -0.0013039819
000150 fc 5a c3 3c 24 44 04 3d 49 c6 e4 3b 8e 22 83 bd
       0.023847096 0.032291546 0.0069816452 -0.06403075
000160 f3 00 85 bd bb 3f 86 bd 98 6f 1d 3d 47 fc 5c 3d
       -0.06494322 -0.06555124 0.038436502 0.053951528
000170 09 af c1 bb e3 64 95 3c 32 f4 a7 3c 5f d1 28 3d
       -0.0059107584 0.018236583 0.020502184 0.041215297
000180 12 59 2f bb eb 19 12 3d 0f 78 7c bd e8 43 09 bd
       -0.002675597 0.03566925 -0.061637934 -0.033512026

output_fc.weight f4 [10, 100]
000000 32 bb 71 bd ed 9c a8 bd 3d 28 09 bd ae f4 c7 3d
       -0.059016414 -0.08233056 -0.03348564 0.09763466
000010 82 be ff 3c ea 53 b0 3d 52 d2 c5 bd 39 1a 4a bd
       0.03121877 0.08609755 -0.09659256 -0.049341414
000020 00 a9 93 bd 1b 84 68 bd 5a 04 c5 3d dc a3 83 3d
       -0.072099686 -0.05676661 0.096199706 0.06427738
000030 e9 5f 0f bd 71 ae 9c bd be 1e 3e 3d 47 0a b3 bc
       -0.035003576 -0.076504596 0.046416037 -0.021855487
000040 ce 61 a3 3d e7 a7 7a 3d 40 70 d8 3d ce 9e 2c 3c
       0.07977639 0.06119528 0.10568285 0.010535909
000050 63 8a 90 3d d6 d1 9b 3d 66 1e c7 3d 6b cc ae bd
       0.07057645 0.076083824 0.09722595 -0.085350834
000060 e3 6d 36 3d 79 eb 8b 3c b2 3e b6 3d 72 db a4 bc
       0.04453839 0.017080056 0.08898677 -0.02012417
000070 e0 d5 24 3d 2e 2d fd bc f3 b5 a0 3d 0e 03 f5 bc
       0.04024303 -0.030905332 0.07847204 -0.029908683
000080 c5 5c a2 bc dd b5 c5 bd 00 70 10 bd 3b 01 42 bd
       -0.019819627 -0.09653828 -0.03526306 -0.047364455
000090 96 bd 53 bd 4d f8 5c bc 65 7c 7f bd 59 25 69 3d
       -0.051694475 -0.013486934 -0.06237449 0.056920383
0000a0 6c 70 cc 3c 95 d6 11 3d 78 42 ad bd 1a ef 69 3d
       0.02495595 0.035605032 -0.084599435 0.05711279
0000b0 cb 1b 98 bd ba a9 db bc 4d 06 7f bc c4 08 5a bd
       -0.07427176 -0.02681433 -0.015565467 -0.053231016
0000c0 69 29 19 3d ba c5 9a bd 72 ad a2 bd 80 cc 72 3d
       0.037393007 -0.075572446 -0.07943238 0.059277058
0000d0 5e 3d 51 bd 59 32 39 3d 7b 62 a7 3d d4 48 eb 3c
       -0.051083915 0.04521403 0.081730805 0.02872125
0000e0 b7 1d 73 3d 67 d2 b9 ba c8 f0 30 bd 18 04 85 bd
       0.05935451 -0.0014177085 -0.043198377 -0.064949214
0000f0 74 95 20 bd 9b 3c dc bc f7 09 5f bd 3b cd 26 bd
       -0.03920503 -0.026884368 -0.054452863 -0.040723067
000100 70 18 8e bd 6d fa 18 bd 4c 95 ed 3c 88 cf 56 3c
       -0.06938255 -0.0373482 0.029001854 0.013111003
000110 82 05 ab 3d a7 88 a3 bd 03 3b a3 3d cd 46 77 3d
       0.0835066 -0.07985049 0.0797024 0.060370255
000120 a4 ba 84 3d 39 39 8c bd 48 d7 ad bd 04 2a b2 3d
       0.064809114 -0.06846852 -0.08488327 0.0869942
000130 90 e5 5e 3d b8 53 a7 bd 7a 84 15 3d 21 c8 8b bc
       0.054418147 -0.08170265 0.036503293 -0.017063202
000140 af 41 46 bd 81 a8 dd 3c 53 ab 8c bd f9 35 17 bb
       -0.048402485 0.027057888 -0.06868615 -0.0023072942
000150 e7 c4 bc 3c 59 d3 d5 bc 69 fe b8 3d 5c d5 3f 3d
       0.02304311 -0.026101755 0.090329 0.046834335
000160 d9 10 fc 3c 28 7c c3 bd 5b 45 0b 3d 25 16 b9 3d
       0.030769752 -0.09545165 0.03400169 0.09037427
000170 f2 f1 28 3d 52 bc 82 bd 4b 2a 42 bd c9 46 aa bd
       0.041246362 -0.063835755 -0.047403615 -0.083142824
000180 1e b2 c2 3d 77 72 a9 bc e8 8f b6 bd 95 e1 0a 3d
       0.095066294 -0.020684464 -0.08914167 0.033906538
000190 65 79 6a 3d 07 45 f5 bc 44 43 6c 3c 95 8c d2 3d
       0.057244677 -0.029940141 0.014420334 0.1028072
0001a0 df 6a 15 3d fd 2b 17 3d 6b d8 ed bb 47 e5 a5 3d
       0.036478873 0.036907185 -0.007258465 0.08100372
0001b0 69 17 af 3d 11 9e 1b 3b 5b 53 85 3d 02 ad 92 bd
       0.08549387 0.0023745338 0.065100394 -0.07161905
0001c0 3d 48 0a bd 6e 17 71 3d 3d 39 3e 3d 2d 4e 85 bd
       -0.033760298 0.058860235 0.046441305 -0.065090515
0001d0 e3 7f 68 3d 20 94 3d 3d 88 df 90 bd 07 8c c8 3c
       0.056762587 0.04628384 -0.07073885 0.024480833
0001e0 59 5a b5 bd 7a f7 be bd 14 42 8b bd e2 58 83 3d
       -0.08855123 -0.09324546 -0.06799713 0.064134374
0001f0 6c 06 fc 3b 53 8b b9 3c 9c 3a 8f bb 82 2f 76 3d
       0.0076911952 0.022649443 -0.0043710005 0.0601039
000200 2a 08 be bd 5f 4e ad 3c 00 f3 64 bd 00 92 bf ba
       -0.09278901 0.021155534 -0.055895805 -0.0014615655
000210 e4 76 94 bd 08 c8 84 3d ca a3 79 bd 09 67 e7 bc
       -0.07249239 0.064834654 -0.060947217 -0.028247373
000220 7b a1 9d bd ea ad 55 bd 2a ad e3 bc 7c 83 c5 39
       -0.076968156 -0.05216781 -0.027792532 0.00037672732
000230 fa 80 4d 3c 94 b4 a7 3d d7 3a 1e bd c9 c8 6a 3c
       0.012542957 0.081887394 -0.038630333 0.0143300975
000240 5b 66 2c bd 33 1b 68 3c db 1e a6 3d ea d5 76 bc
       -0.0420898 0.014166641 0.08111354 -0.0150656495
000250 3a c1 be 3d 82 ad ce 3d e8 87 f7 bc a0 d4 16 3d
       0.09314199 0.10091688 -0.030216172 0.03682387
000260 08 d1 a8 3c 90 ac a1 bd c7 e5 d0 ba 89 1c e9 bc
       0.020607486 -0.07894242 -0.001593762 -0.02845599
000270 6d 7f 08 bd e3 b8 a2 bd 82 d6 5a bc 4a 32 8d bd
       -0.033324648 -0.079454206 -0.013356807 -0.068943575
000280 36 6e 20 3d fd d6 95 bd 1d 5f a6 bd ff 31 05 bc
       0.039167605 -0.073163964 -0.0812361 -0.008129596
000290 a6 aa 4b 3d 04 e5 86 bd 6b 62 04 ba 3f f3 b5 bd
       0.04972329 -0.0658665 -0.0005050066 -0.08884286
0002a0 5a e3 83 bd 6c f3 f4 bc 0d 75 05 bc f8 40 b4 3d
       -0.06439848 -0.029901229 -0.008145583 0.08801454
0002b0 f1 e5 b4 3d 90 96 9f bd c7 4d 62 39 a9 7e 53 bc
       0.0883292 -0.077923894 0.00021582014 -0.012908616
0002c0 0f c6 b7 bd ff 4f 3e 3d c5 db 44 bd 25 a7 c6 3d
       -0.089733236 0.04646301 -0.04806115 0.09699849
0002d0 5c 17 97 bd f4 56 00 bd 30 c5 87 3d d7 b9 97 3d
       -0.07377502 -0.031332925 0.066294074 0.07408493
0002e0 a7 47 a4 bd b8 82 39 3b 42 87 6f bd 0f 96 fb 3c
       -0.08021479 0.0028306674 -0.0584786 0.030711202
0002f0 5f bb 9d 3d 55 f6 dc bc 97 5b a1 3d 46 d6 c3 bd
       0.07701754 -0.026972929 0.078787975 -0.09562354
000300 da 48 9b 3d ca fa 1f bd 12 3a f9 bc b7 6b a8 bd
       0.07582255 -0.03905753 -0.030423198 -0.0822367
000310 a0 73 9f 3d 12 91 b7 bc a8 2c b8 3d e5 fe b2 3b
       0.077857256 -0.022408042 0.089928925 0.0054625147
000320 0a 6c 5f bc 1a 1f fd 3c 42 48 38 3d 8b 5e 39 3b
       -0.013636598 0.03089862 0.044990785 0.0028285112
000330 70 24 79 bc 07 73 9a 3d 52 f8 74 3d 18 a9 cb bc
       -0.015206441 0.07541471 0.05980713 -0.024860904
000340 1a ed 4e 3d 21 b9 97 3d c1 71 9e bd f1 fd 8f 3d
       0.050519086 0.074083574 -0.077365406 0.07030857
000350 d2 12 07 bc d3 0d cb 3d 1c 4d 6c bd fd 96 d2 3d
       -0.008244233 0.09914746 -0.057690725 0.10282705
000360 6c 19 93 bd 33 2e e4 bb 34 68 54 bd 71 bf 4c bd
       -0.07182583 -0.006963515 -0.05185719 -0.04998726
000370 a0 e5 f3 3b ec 69 e7 3b 1b 02 9c 3b 8a 3b a1 bd
       0.007443145 0.0070621874 0.004760993 -0.07872684
000380 ea 1b a8 bd e5 e1 a8 bd 34 02 e3 3c 4c 79 20 bc
       -0.08208449 -0.08246211 0.027711011 -0.009794544
000390 1f 3c b1 3d e0 49 14 bd 7d e0 b0 bd 39 76 9c 3d
       0.08654045 -0.036203265 -0.08636568 0.07639737
0003a0 fc a7 e8 3c cd 1d dd 3c fd de 8a bd f7 93 8c bd
       0.028400414 0.02699175 -0.06780813 -0.068641596
0003b0 1d e9 9a bc eb 6a 45 bc 9f 42 f2 bc 22 ab 81 bd
       -0.018909985 -0.012049417 -0.029572783 -0.06331469
0003c0 45 e0 af 3d a6 e7 ff 3c c3 4d c6 bd a6 4f 9f bb
       0.08587698 0.031238388 -0.096828006 -0.0048617898
0003d0 71 e1 92 3d 50 97 b6 bd 8d d1 88 bd 1a d0 2b bc
       0.07171906 -0.08915579 -0.06680594 -0.010486627
0003e0 51 fd 35 bd 78 b6 c2 3d fa 14 22 bd 47 2e 78 3d
       -0.044431034 0.095074594 -0.039570786 0.06059101
0003f0 04 4e 8d 3d d6 39 17 bc cd 2d a8 bd 42 16 67 3c
       0.06899646 -0.009230098 -0.08211861 0.014104428

output_fc.bias f4 [10]
000000 84 d8 a9 3d a4 bf 93 3d 17 7a 33 3d 38 78 91 3d
       0.0829325 0.07214287 0.043817606 0.07103008
000010 10 d8 db bd 02 e2 b3 3d e3 17 a3 bd 8a 5c 93 3d
       -0.1073457 0.08783342 -0.079635404 0.07195385
000020 bc 9f ae bd 82 f0 e6 3c
       -0.08526561 0.028190855
